save_CIFAR10_model/kernel/model_resnet-20--kernel=1.pt (torch, 177008 bytes, 96 tensors)

conv1.weight f4 [16, 3, 3, 3]
00000000: d72f 37be 7729 283d da90 3b3e 218c ccbe
00000010: 815a 29be 658e 033f fb55 6e3e 475d f2bd
00000020: 172a abbd 1700 ca3e dc14 8d3d baa4 f2be
00000030: fbff ce3e 523e 763d e915 f3be 9017 803f
00000040: 79ff 313d 09fe 94bf 615c 4a3e a12a d73e
00000050: f70f 1bbf d29a e53e 2e64 fe3e 866b 73bf
00000060: 558d 7f3f 3243 2c3f bbd1 c9bf d039 9fbe
00000070: 336c 10bf ac36 0a3e bbd8 1e3e 6b7d 8c3f
00000080: 31e0 0a3f 85b0 383e 3035 3bbf 0c69 17bf
00000090: 94a2 00bf ef2c afbe 32be 373e 357b 9a3e
000000a0: 9f26 b93f 0701 3d3f 16ea 853e 9e24 72bf
000000b0: 8f6e 65bf 4fd2 83be e2c0 52be f2a2 ca3d
000000c0: 8446 a23e b2e6 a63f f81e 363f a66e 4dbe
000000d0: e149 8bbf 0309 70bf 448e 123f d878 b93f
000000e0: 8e02 483f 2a1d 613e 9233 4b3f 17ee d53e
000000f0: b106 9bbf 8135 bfbe a387 98bf 65d4 b0bf
00000100: a1bf 28c0 0e4c ddbf 554c 0a3e cd3d 8abf
00000110: bd83 443c 58d5 e03f 5054 823f d77f e13f
00000120: 24e2 1e3f 8d45 b73f 795b 503f 18fd 57be
00000130: a4b3 943d 3669 47be 41e8 0abf a1d1 22bf
00000140: f6d4 30bf 82dd 87bf 65dc 83bf 114c 66bf
00000150: acb7 c9bc 043b a33d 1cf6 023e c639 43be
00000160: ebed afbe 7b31 aabe c0e8 263e 131f e5bd
00000170: 07ce 993d ac4e 76bd 2792 0abe 09fa 24be
00000180: 2e2a 943d 6b08 24bd 70c8 68be ae8e 9d3f
00000190: 1e7d 893f 1d76 a43f 18c1 0fbe 04a7 f63d
000001a0: 19ed e0bc d21e 903e 77ea e43e 57ae 453e
000001b0: c984 aa3d 45f2 853e 758d 28be 19e5 0fbd
000001c0: 5479 65bf 48cd 6cbe 11f0 903e 6dc0 2abf
000001d0: 7a2c aabc 8a4b 91bf f039 83be ef67 90bf
000001e0: 470d 113e 350f c63e b1de 053f f8b3 2d3f
000001f0: 9b3f d83f f535 b63f 60bd 013f bcb8 9c3f
00000200: 7993 043f bb17 e63d 5981 393c 31ff 903d
00000210: 4c30 63bf 9135 6fbf 4a91 99bf 3c75 8f3f
00000220: b49d e9be 897a 673f ce1d d13e db9a 75bf
00000230: 9df4 063e c451 fd3b 025f 81bf 8685 d7bd
00000240: 7288 47be e8a3 d5bf 4e91 4bbe 0935 153f
00000250: e077 12bf e1ba 373f 5301 093f bbf5 81be
00000260: 6355 833f fbb1 3a3f be10 a43e e8d3 243f
00000270: 6842 a93e 48b8 5bbe e9b9 833e 6f94 ffbe
00000280: 9fe2 79bf 11a1 cbbe 80df 003f e50c 163f
00000290: 7845 163f 4414 71be e251 55bf 36b8 67be
000002a0: 1a96 1dbb d0d4 2dbe c1c3 7d3d eac6 9a3e
000002b0: 68ef c9bc 426f 75be 71e3 c13e a90f b7be
000002c0: 1ec3 fcbc 7a93 d0be effc 2bbf aa96 63bf
000002d0: a391 a9bf 8843 38bc 5b0d abbf 35e5 813e
000002e0: 4e47 9a3f 465d 543f 579f a0be 34d1 de3f
000002f0: 43b2 7f3f 7201 873e 7540 373f 3249 2f3f
00000300: 81d0 7dbf ab4e 74bf 2e47 97bf b45a 033f
00000310: 3765 da3e eaca 003f 4915 083e 6f95 1d3f
00000320: bba3 213f 3ef2 2ebf dae5 41bf d039 6cbf
00000330: 081c fd3e 8dbe 783e 8279 8b3e 0f63 9e3e
00000340: 5ee9 1d3f d8f9 103f d2ce 21bf cc61 33bf
00000350: 2510 65bf 48e6 bb3e 5975 513e d979 2b3e
00000360: c2dc 13be d4cb 1c3f 677a cabe 0411 cebc
00000370: aeaf 193f e669 5fbf 373d 213e 767a a2bf
00000380: 2cdf b03f 014c bd3e 2db9 383f 2f59 60bf
00000390: d9c4 7f3d a3c3 293f 2d3b 5fbf e8c2 43be
000003a0: 34b0 d7bf 50f7 e73f 6809 13bd 6fa0 183f
000003b0: c219 3fbf 20a1 cb3d c74e 843f bc3c 38bf
000003c0: a52e 9dbe 4ba6 92bf a763 9c3f 591c 2fbf
000003d0: 2f80 92bd e7c7 77bf 42de 863e 7fa2 2f3f
000003e0: e3a0 ab3e 9c93 f8be 1617 c73b 1fce b5be
000003f0: e8f8 893e 5968 973e ab24 46bd 9d05 0d3e
-0.17889343 0.04105517 0.18316975 -0.3995066 -0.16538431 0.5138915 0.23274986 -0.118341975
-0.083576374 0.39453194 0.06888744 -0.473913 0.40429673 0.060118027 -0.47477654 1.0007191
0.04345653 -1.1640025 0.19761802 0.4202471 -0.60571235 0.4484468 0.49685806 -0.9508594
0.9982503 0.6729003 -1.576713 -0.31098795 -0.564151 0.13497418 0.15512364 1.0975775
0.5424834 0.18036087 -0.7312803 -0.59144664 -0.50248075 -0.3421397 0.17943648 0.30172125
1.4464911 0.7382969 0.26155156 -0.94587123 -0.89621824 -0.2574639 -0.20581391 0.098943606
0.31694424 1.3039153 0.71141005 -0.2006174 -1.0881921 -0.9376375 0.5724833 1.4490004
0.781289 0.21983781 0.79375565 0.4178321 -1.2111417 -0.37345508 -1.1916393 -1.3814818
-2.636696 -1.7288835 0.13505681 -1.080011 0.0119942995 1.7565107 1.018198 1.7617139
0.62063813 1.43181 0.81389576 -0.21092641 0.07260826 -0.19473729 -0.5426064 -0.6360112
-0.6907495 -1.0614474 -1.0301634 -0.8995982 -0.024623714 0.07970241 0.12789196 -0.19065008
-0.34361205 -0.33240876 0.16299725 -0.111875676 0.0751 -0.06013362 -0.13532315 -0.16111006
0.07234608 -0.04004709 -0.22732711 1.2309167 1.0741308 1.2848545 -0.14038503 0.120435745
-0.027456807 0.28148514 0.44710132 0.19304787 0.08326108 0.261614 -0.16460212 -0.035130594
-0.8963826 -0.23125184 0.28308156 -0.6669987 -0.020773161 -1.1351178 -0.2563014 -1.1281718
0.14165221 0.38683477 0.52292925 0.67852736 1.6894411 1.4235216 0.5067959 1.2243876
0.51787525 0.11234995 0.011322343 0.07079924 -0.8874557 -0.9344111 -1.1997464 1.1207652
-0.4562813 0.9042135 0.40843052 -0.95939416 0.1317925 0.0077306945 -1.0107119 -0.105235144
-0.19485644 -1.6690645 -0.19879648 0.5828405 -0.57214165 0.7176953 0.53517646 -0.2538279
1.0260433 0.72927827 0.32044023 0.64385843 0.33058476 -0.21457016 0.25727776 -0.49917933
-0.9761142 -0.3977132 0.50341034 0.58613425 0.5869975 -0.23542887 -0.8332807 -0.22628865
-0.0024045766 -0.16975713 0.061954264 0.30229884 -0.02465029 -0.23968223 0.37868837 -0.35754135
-0.030854758 -0.40737516 -0.6718282 -0.8890177 -1.324757 -0.011246569 -1.3363451 0.25370184
1.205301 0.82954824 -0.31371567 1.7407594 0.9988138 0.2636829 0.7158273 0.6847106
-0.99146277 -0.9543254 -1.1818597 0.51310277 0.42655346 0.5030962 0.1328937 0.6155614
0.6314046 -0.6833838 -0.7574135 -0.92275715 0.4943545 0.2429144 0.2724114 0.3093495
0.61684215 0.5663123 -0.6320621 -0.700711 -0.8947776 0.36699128 0.20454921 0.167457
-0.14439681 0.6124852 -0.3954651 -0.025154598 0.6003369 -0.87270963 0.15746008 -1.2693622
1.3818107 0.3697205 0.72157556 -0.87636083 0.062443588 0.6631414 -0.8719967 -0.1911732
-1.6850648 1.8122349 -0.035897642 0.596198 -0.7464868 0.099428415 1.0336541 -0.71967673
-0.3069965 -1.1456999 1.2217911 -0.6840263 -0.07153355 -0.967894 0.26341444 0.68607324
0.33521184 -0.48550117 0.00607575 -0.3550882 0.26947713 0.29571798 -0.048374813 0.13771673

bn1.weight f4 [16]
00000000: 7fe6 aa40 e365 ad40 dbcf 8440 5e76 8440
00000010: 13d4 7540 a910 b140 4e01 8d40 472e ad40
00000020: d040 9040 0261 c040 57d4 9240 b7b3 c040
00000030: cf05 7a40 f8e1 ae40 bda8 a740 e224 9a40
5.3406367 5.4186873 4.150373 4.139449 3.841069 5.5332837 4.4064093 5.411899
4.5079117 6.011842 4.5884204 6.021938 3.9066045 5.465084 5.239348 4.8170023

bn1.bias f4 [16]
00000000: b98c 213e 59a3 e63e 67e8 8540 61ca 1c40
00000010: 8d2a 4640 872b 3e40 f911 2b40 a930 cb3e
00000020: 8eb6 6d3d 90ba e03f cfaa 5340 1c7a 5940
00000030: 4855 c53d c996 4e40 36eb 443d 0e6f 9040
0.15776338 0.450465 4.1846194 2.4498522 3.096347 2.9714067 2.672972 0.39685562
0.058035426 1.7556934 3.3073003 3.398078 0.09635407 3.2279532 0.048075877 4.5135565

bn1.running_mean f4 [16]
00000000: 2dd0 05bd 412c 29be 588d 91bd 3085 083f
00000010: a903 d13b 6f9c 0f3e 823f bb3c 867b 483e
00000020: 2936 02bc 5a12 ca3e b7df 4abe f6b4 2dbe
00000030: 1b5a d63b 8ca1 84bd f2bd 183d 4a54 55be
-0.032669235 -0.16520788 -0.07107037 0.5332823 0.00637861 0.14024518 0.022857431 0.1957837
-0.007947483 0.39467126 -0.19811903 -0.16963562 0.006541503 -0.06476125 0.03729052 -0.20832935

bn1.running_var f4 [16]
00000000: 2da6 1e41 62f3 1e41 bf12 8f3f 33d0 eb40
00000010: 516f a13f b572 dd40 9e00 0f40 56f9 2941
00000020: 692f 2340 b727 0f41 f44d e33f dcea 1141
00000030: 59a2 823f 668d 3741 aec1 3241 f2f6 2e40
9.91557 9.93442 1.1177596 7.369165 1.2612096 6.9202523 2.2344127 10.623373
2.5497687 8.947196 1.7758164 9.119839 1.0205795 11.472021 11.172285 2.7338223

layer1.0.conv1.weight f4 [16, 16, 1, 1]
00000000: ce52 a73d 44c3 0c3e 8453 ddbc 8696 8a3e
00000010: 3cb8 763d 6346 343e 0325 02be 6040 603e
00000020: 803b a43d 7bc3 4f3e 77a8 12bd 0367 293e
00000030: 98ec 053d fcf6 3abe 7ff9 4a3d 794f 2d3e
00000040: 92e2 923e 16dd 633e f3c7 7a3d 2a52 573c
00000050: a5a1 813d 2686 36bd 2741 72bc e0ae 503e
00000060: dea5 0abd b7cf da3e 2329 a73d 69db deb9
00000070: d73e 7b3d d8c0 513e 0709 1bbc 5fbb c13d
00000080: 3657 64bd 7338 06be 7370 023d 2495 c33d
00000090: 156f f0bd efb9 e0bd 623b 51bd f258 b23c
000000a0: ea11 89be 502f 703d b4f8 e2bd aa6b e7be
000000b0: e477 92be 2332 d9bd 40f8 c8bd df8c 44bd
000000c0: d479 cb3d 7081 a1bd 0e9e c5be 6ecd 1fbe
000000d0: c6e1 7fbe fa37 90bd 83de 1b3c 7d30 fdbd
000000e0: 33a2 68bb 28e8 80bc 615f fcbd fd69 30bd
000000f0: c3e8 183d c543 94bd d3ac d03d 0e34 2ebd
00000100: 6256 753e 1976 e9bc 9493 983d 36c0 9fbe
00000110: d07f fbbd fd3b 9bbb e146 0f3e 5bec 37be
00000120: 789d 533d e443 183d c416 76bd 755e 51bd
00000130: 212e 293d dde6 483b 7fb2 e23d 4e86 783d
00000140: 1318 533e d87b cabe 12eb 833c 68c3 953d
00000150: e3ae 34bc 154c d4bd b472 27be f6d2 93be
00000160: a734 fabd 29fd 073d d458 c83d 9ab2 1dbd
00000170: dc7b b3be fb77 4abe 78e1 4d3e 8735 c03c
00000180: febb 8ebc 0bbf 0ebe 0d1b 04bc ad54 08bf
00000190: ece1 213d f7b8 be3b 78ec 823e 0122 d03d
000001a0: 9693 abbd 9eec c7be 1d45 16be cb3b 90bd
000001b0: fe87 87bd c524 92be 3147 2abc 5245 0ebe
000001c0: c84d 093d 2be3 8dbd 3101 51bc 5614 043f
000001d0: c469 bdbd 00fd f7bc 7b86 2dbe 1ae9 80bd
000001e0: c1a0 303e 53f6 1bbe d293 87bd 5dd7 be3d
000001f0: 9632 453d 1a08 3f3e b20c 263e 2fdb 74be
00000200: 77ad 95be 80a2 f0bd 7cbd 8cbc 12a8 d43b
00000210: a7fd 6fbe e780 32be bc05 9abc 87e6 3fbe
00000220: 52d7 943d 2091 b93c a16b 693b 3445 e7bd
00000230: 9148 183e 55a5 3dbe 446c 37be 2a46 dbbd
00000240: 2de9 83be 0ee9 d1bc a64e c13d e042 2b3d
00000250: 04a4 d83d fec7 95be 93a3 583c 95ed 55bd
00000260: 6d51 aebd bc52 f7bd 1398 32be e977 06be
00000270: 20d9 293d f88c aebc 7c66 95be 842d 8fbd
00000280: 2eab e33d fa4a ffbd fa1b 9e3d 1ba4 31be
00000290: 66a7 333e 1617 6c3d a351 46be 8aff 2ebe
000002a0: 5458 52bd 945b 18bd 0f58 d4bd 3fe7 0fbc
000002b0: a109 a6bd fed1 94b9 434a 483c 95af cf3a
000002c0: 22a4 823d ad11 21bf 3c33 61bb fcca 863c
000002d0: 8d29 823d 84f3 2fbc f0b9 3bbe 792f 02bf
000002e0: 1782 c8ba 92da 6f3d 582e 31bd ecf2 733c
000002f0: 3399 92be 9e42 0bbf 0271 bd3d bfb5 1b3d
00000300: bd49 28bd 8243 cc3e 5d40 8c3d 949b 913c
00000310: 7d12 b03d 0506 4c3e c18e b93e 2f5d dd3b
00000320: e509 823d 00af 62bd 8449 0b3d 39e4 dc3d
00000330: 09c4 3a3d ccd3 b03c d588 29be 50fa 51be
00000340: 1e18 1e3e c508 69be c180 39bd 317f c7bc
00000350: 51bc fd3c 4939 ca3d c405 243e b9d6 cd3e
00000360: 05be 293e 2af2 153d 1aa0 463d a9b7 e63e
00000370: b6d0 443d be86 0abc 4ad3 a93e 5645 053d
00000380: cde9 183e 080d 923e ddec a83d a7df 1bbb
00000390: 2296 343e 5040 783e 3566 54bd e4e0 883e
000003a0: cc14 87be 5b3b 2a3e 7cb0 febc 720b fc3c
000003b0: ce4c e4bd 2a10 a9bd 27d2 82be 6936 97bc
000003c0: 7f19 13be 018e 65bd a226 aa3e 9985 84bd
000003d0: 4fec 4a3e acce b13b e0b1 5bbe e56c ff3b
000003e0: 7286 7e3d cc91 9dbd 0657 89bd 8721 593d
000003f0: 44a0 31bd 4806 b03c ef4a 7abd b778 56be
0.081700906 0.13746363 -0.027017362 0.27067965 0.060234293 0.17604975 -0.12709431 0.21899557
0.08019161 0.20289414 -0.03580519 0.16543202 0.032696337 -0.1825828 0.049554344 0.16924848
0.28688484 0.22252306 0.061225843 0.013142148 0.063296594 -0.044561528 -0.014786041 0.2037921
-0.03384959 0.427366 0.08162143 -0.00042506613 0.061339226 0.2048372 -0.0094626015 0.09459566
-0.055747233 -0.13107471 0.03184552 0.09549931 -0.11739937 -0.10972964 -0.051082022 0.021770928
-0.2677148 0.05863887 -0.110825926 -0.4519933 -0.28607094 -0.10605266 -0.09812975 -0.047985908
0.09935346 -0.07886016 -0.3859715 -0.15605709 -0.2498847 -0.07041927 0.0095135 -0.12362764
-0.003549707 -0.0157357 -0.123228796 -0.04306983 0.037331354 -0.072394885 0.101892136 -0.042530112
0.23958734 -0.028498696 0.07450023 -0.31201333 -0.12280238 -0.004737376 0.13991882 -0.17961256
0.051663846 0.03717412 -0.060080305 -0.051115472 0.041303758 0.0030655183 0.11069202 0.060674958
0.20614652 -0.3954761 0.016103301 0.073126614 -0.011028024 -0.10366074 -0.1635235 -0.28871888
-0.12217074 0.033200417 0.097825676 -0.038500406 -0.35055435 -0.19772331 0.20105541 0.023463024
-0.017423626 -0.13940065 -0.00806309 -0.53254205 0.039522097 0.0058203894 0.25571036 0.10162736
-0.08377759 -0.39047712 -0.14674802 -0.070426546 -0.06617735 -0.28543678 -0.01039295 -0.13893631
0.033521444 -0.069280945 -0.012756632 0.5159353 -0.09248689 -0.030272007 -0.16945831 -0.062944606
0.17248823 -0.15230684 -0.06619991 0.09318421 0.048143946 0.18655434 0.1621578 -0.23911737
-0.29233906 -0.117497444 -0.017180197 0.006489762 -0.23436604 -0.17431985 -0.018801562 -0.18740283
0.072676316 0.022652209 0.003561713 -0.11292496 0.14871432 -0.185201 -0.17912394 -0.10706742
-0.25763837 -0.025623824 0.09438829 0.041811824 0.105781585 -0.29254144 0.013222593 -0.05222853
-0.085116245 -0.12076327 -0.17440824 -0.1313168 0.041466832 -0.021307454 -0.29179752 -0.06991103
0.11116634 -0.124654725 0.0772018 -0.17347758 0.17544326 0.057639204 -0.1936708 -0.17089668
-0.051353768 -0.03719671 -0.10368358 -0.008783161 -0.08107305 -0.00028385216 0.012224737 0.0015845174
0.06378962 -0.62917596 -0.0034362813 0.016454212 0.063555814 -0.010739211 -0.18332648 -0.5085369
-0.0015297559 0.058558054 -0.043257087 0.01488946 -0.28632507 -0.54398525 0.0925007 0.038015123
-0.041085947 0.39895254 0.06848214 0.01777438 0.08597276 0.19924171 0.36241725 0.006755493
0.063495435 -0.055342674 0.034005657 0.107857175 0.04559711 0.021585368 -0.16556104 -0.20505643
0.15438887 -0.22757252 -0.045288805 -0.024352642 0.030973585 0.098742075 0.16017824 0.40202883
0.16576393 0.0366079 0.04849253 0.45061997 0.048050605 -0.008454977 0.33169013 0.032536827
0.14932938 0.28525567 0.08248303 -0.002378443 0.17635396 0.24243283 -0.051855285 0.26734078
-0.26383054 0.16624205 -0.031090014 0.030767176 -0.11147462 -0.08255036 -0.2555096 -0.018458562
-0.14365195 -0.05604363 0.332326 -0.06470794 0.19816707 0.0054262485 -0.21454573 0.0077949637
0.062139936 -0.07693824 -0.067060515 0.05301049 -0.04336573 0.02148737 -0.06110662 -0.20944487

layer1.0.bn1.weight f4 [16]
00000000: 7dd4 503f 41cb 4d3f 43b8 743f 0f46 513f
00000010: fa71 193f ed18 4e3f 7b11 833f 04c5 303f
00000020: 7e96 4f3f dd7d 4e3f 1ac3 fb3e 71f8 ba3f
00000030: d784 5f3f 1b17 993f 6dc5 723f db5d 323f
0.8157423 0.80388266 0.9559366 0.81747526 0.5993954 0.80506784 1.023971 0.6905062
0.8108901 0.806608 0.49172288 1.4607068 0.8731207 1.1960176 0.948325 0.6967446

layer1.0.bn1.bias f4 [16]
00000000: 7e76 3e3e 575b c93c 3382 f13e 7e2f a93e
00000010: acb5 bd3e 3279 003f 69f9 9f3d 15a4 b43e
00000020: d6a8 ba3e 34f7 8b3e 211d 993e 0776 1b3f
00000030: 7bec bdbd aeff 27bf d239 edbc cbfc 7d3e
0.18599889 0.024579687 0.47169647 0.33044046 0.37052667 0.5018493 0.07811243 0.35281435
0.36456937 0.2733704 0.29905036 0.6072697 -0.09273621 -0.6562451 -0.028958235 0.24803464

layer1.0.bn1.running_mean f4 [16]
00000000: b2df 3e40 e87f 8140 7b59 74c0 4057 89c0
00000010: 8bbd 2cbe 44a0 b9bf 0289 8ac0 189e 9bbe
00000020: 115d 65c0 4802 2dc0 7aae 39bf bbde 48c0
00000030: bf9a 0540 17ca 7440 f113 f53f bef0 213c
2.9824033 4.0468636 -3.8179615 -4.2919006 -0.1686918 -1.4502034 -4.3292246 -0.30394053
-3.5838053 -2.7032642 -0.72531855 -3.1385944 2.08757 3.8248346 1.9146711 0.009884058

layer1.0.bn1.running_var f4 [16]
00000000: 2a3e ff40 ae80 c540 2a75 1841 f833 b040
00000010: 125d 8440 42b5 f240 d87e bc40 91f9 a040
00000020: 0f61 c440 db4a e740 9479 5140 23cb ad41
00000030: de65 e840 86fb 5241 4b8c df40 456c a640
7.9763384 6.171958 9.5286045 5.506344 4.136361 7.584626 5.890484 5.0304646
6.136848 7.2278876 3.2730455 21.724188 7.262435 13.186407 6.9858756 5.2007165

layer1.0.conv2.weight f4 [16, 16, 1, 1]
00000000: 4bb6 af3d bda4 1c3e 0bb9 06be 0bf3 083e
00000010: 6002 963d 16c2 f4bb cb94 e93d b28a cf3d
00000020: 15f3 98be 8b3e 99be 8558 9eba cdf6 a43d
00000030: ce3c fa3c 0237 efbd 80f5 96be deb4 e7bd
00000040: 0b7d 443e f92a ca3d c604 f3bd ddf8 d93d
00000050: 2338 1b3e 1171 97be aab4 42be 3543 623c
00000060: ee5a 14be 76ad d4ba 8aec 13bd 50cc c1be
00000070: 9032 383e 9b09 9a3c c041 bb3d ffae 173d
00000080: b22b 883d df37 d8bd 927a 31bc 81dc e4be
00000090: 3fcd 4e3e b248 443d 8bd2 883d 8820 c33d
000000a0: 41e0 493c b98f a7bc 093f e3bc e7d4 88bd
000000b0: d37d 38bd 1200 95bd fa54 4fbe 3bc9 653e
000000c0: 5b87 103e ffec e5bd 1f40 333d 272e 86bd
000000d0: 12be 79be ef07 0d3e 3d03 99be c15f e43e
000000e0: bc44 b3bd e8ed 8bbc b4a4 4bbe c446 5b3d
000000f0: 5a40 a3bd cedb f2bd 4752 12be 4d36 c4bd
00000100: aa12 00bd 9ef8 d73b aa8e 04bd 8ff7 0ebd
00000110: 7958 93bd ace4 5bbd 570f 383e c637 d3bd
00000120: ad78 4dbe 7b22 4f3e f3a8 863e 5294 7d3d
00000130: 0ed1 74be 2a03 52bd 68e7 59bd 8731 963e
00000140: fd00 203e f12f 8a3c e871 a93d 5c81 c33c
00000150: 5e67 033d 75f1 f23c 1999 08bd a24c 3d3d
00000160: 0300 b6bd 1a26 bdbd 26d8 a83d ff61 bc3c
00000170: e59f 8a3e 5e0e 213f 86ee 443e f85a f53c
00000180: 39c6 c3bb fdf9 843e ee9a d13d 47d9 0f3d
00000190: cd01 e83d a284 f9bd 4709 9a3e bfcd f93c
000001a0: b6b7 e0bc 4ac4 9b3d 0fec 8ebc 6543 5e3d
000001b0: 1a6a 3f3e 61b4 323e cb04 ee3d 8a02 f2bd
000001c0: 5d1d a13e 35c4 bbbd c8fd a0bd 2a8f 983d
000001d0: 8645 11be 59a5 00be 9b6d ccbc ad56 c93d
000001e0: 1ed2 ecbd f494 6bbd f1c5 19be bb29 84be
000001f0: 5104 993e e8bf 54be 4c2c 853d 78ad 423c
00000200: 26d1 8f3d 9613 afbd fbbb dfbc 0d3b 143d
00000210: 4a04 8bbb bad4 d0bc b3cd de3d 3603 1ebd
00000220: fb50 5d3d 32dc 9b3d 4fc7 ae3b 1d68 b53e
00000230: aa77 a9bb 2388 83be 1e92 253d 47ad ac3c
00000240: 26c0 ac3e a9c4 b23e 7bf9 9abd a81b 84bd
00000250: 34d7 553d 3939 cabb 8aa5 0a3e e900 f0bc
00000260: d263 b0be 1294 883d 2810 9e3d 0963 f33c
00000270: 5c04 2c3e 61eb 423e 581c 4c3e 695f 99bd
00000280: 29db 1b3d e276 5e3d fdc8 153e 80eb 193d
00000290: 6b87 50be bf1c 2bbc a352 70be 4a5c 083e
000002a0: 27b6 1b3e fc94 c43c d8d2 26be 78ea 31be
000002b0: c859 5a3d d2e7 e7bd 04c2 96bc aa56 053d
000002c0: 839d 5f3d 629d ccbc b801 a6be 52f8 163c
000002d0: 8f93 013c 054c f73c 13f3 a9bd f8c8 953d
000002e0: 0650 1bbe dd1a 9bbc 6f21 073c a821 3c3c
000002f0: e6ad 3fbd be65 01bf ded2 98be 328a 0bbd
00000300: a43b 29bd a2d6 15be 187d 3ebe efda 573d
00000310: d047 283c bb1d 83be 157e 87bd 07ec a53d
00000320: 7ced cabc 58f5 463c a649 6abc 0443 37bd
00000330: 4e9f c33d 1862 91be 6ef2 1dbe 6862 c23d
00000340: aeb7 de3c f549 bbbd e9b1 98bd a3bb 04bd
00000350: 3291 623d 9e0a 3cbe 29a6 46be 2f23 113e
00000360: d1bb d8bd 0e14 19bd 55dc 503c a942 f6be
00000370: 9444 b9be 2c8e ef3d 16b6 213d 5f7b 4d3d
00000380: dfcb 26bd 6223 93bd ffe6 97bd 885b bf3d
00000390: ba46 cd3d 6b5e 7e3d 29bc 09bd eef8 343e
000003a0: 6eca a2bd 57f4 b6be e18f d43d 5e53 8abd
000003b0: 8db6 afbc 86b6 a7be dd45 95bd bbc1 813d
000003c0: a02e 883d 5a1d 5c3d 873d af3d 06e1 edbc
000003d0: 323e a73d 6ad7 dc3b 3e6c 91be 2f34 0dbe
000003e0: 89ee 553b 5ec4 9fbd 57ea aabc b368 143e
000003f0: ad4e ddbc 7f64 84bd 46fa f93d c30f a33c
0.085796915 0.15297218 -0.13156526 0.13373964 0.07324672 -0.007469426 0.11405333 0.10133876
-0.29872957 -0.2993053 -0.0012080824 0.08054886 0.030546572 -0.11680414 -0.29484177 -0.113137946
0.19188325 0.09871478 -0.11866145 0.1064317 0.15158133 -0.2957845 -0.1901423 0.013809969
-0.14487812 -0.0016226012 -0.036114253 -0.3785119 0.17988038 0.018803408 0.091434 0.037032124
0.06648959 -0.105575316 -0.010832446 -0.4469948 0.20195483 0.04792089 0.06680783 0.09527689
0.012321533 -0.020454274 -0.027740018 -0.06681233 -0.04504187 -0.07275404 -0.2024726 0.22440045
0.14114134 -0.11226844 0.043762323 -0.065517716 -0.24388912 0.13772558 -0.29885283 0.44604304
-0.087533444 -0.017081216 -0.19887048 0.053534284 -0.079712585 -0.11858331 -0.14289199 -0.095806696
-0.0312678 0.006590917 -0.032362618 -0.03490406 -0.07194609 -0.053684875 0.17974602 -0.10313372
-0.20065565 0.20227997 0.26300773 0.061909027 -0.23907873 -0.05127255 -0.0531992 0.2933466
0.15625377 0.016868563 0.08273679 0.023865394 0.032081 0.029656151 -0.03334913 0.04621566
-0.08886721 -0.09235783 0.08244352 0.022995947 0.27075115 0.6291255 0.19231614 0.029950604
-0.0059745577 0.25971976 0.102346286 0.03511932 0.113284685 -0.12183501 0.30085203 0.030493615
-0.02743135 0.076057985 -0.017446546 0.05426349 0.18692818 0.17451622 0.11622008 -0.118168905
0.31467715 -0.09168283 -0.07860905 0.074491814 -0.14186677 -0.12563075 -0.024954608 0.09830985
-0.11563514 -0.0575151 -0.15016915 -0.25813088 0.29886106 -0.20776331 0.065025896 0.0118821785
0.07022314 -0.085486576 -0.027311316 0.036189128 -0.0042424547 -0.02549206 0.10879078 -0.03857728
0.054032307 0.07610358 0.005333818 0.35430995 -0.005171736 -0.25689802 0.04042255 0.021078719
0.33740348 0.34915665 -0.07567116 -0.064505875 0.052207187 -0.0061713723 0.1353971 -0.029297309
-0.34451157 0.06668867 0.07717925 0.02971031 0.16798538 0.19035102 0.19932687 -0.07488901
0.038050804 0.054312594 0.14627452 0.037578106 -0.20364158 -0.010443865 -0.23469023 0.13316455
0.15206204 0.023996823 -0.16291368 -0.17374599 0.05330828 -0.11323513 -0.01840306 0.032553352
0.054593574 -0.02497739 -0.32423186 0.009214478 0.007908716 0.030187616 -0.08298316 0.07313722
-0.15167245 -0.018933708 0.008247717 0.011482634 -0.0467967 -0.5054587 -0.2984838 -0.03406734
-0.041316643 -0.14632657 -0.18602407 0.052699026 0.010271028 -0.2560862 -0.06615845 0.08101659
-0.024771444 0.012143455 -0.014299786 -0.044741645 0.09551869 -0.28395152 -0.15424511 0.09491426
0.027187195 -0.091449656 -0.07455809 -0.032405507 0.05531425 -0.18363425 -0.19399323 0.14173578
-0.10582698 -0.03737264 0.012747844 -0.48097733 -0.36185133 0.11697039 0.03948029 0.050166484
-0.04072177 -0.07184483 -0.07417106 0.0934363 0.10023256 0.062101763 -0.03362671 0.17673084
-0.07948767 -0.35733292 0.10379005 -0.06754182 -0.021449352 -0.32756442 -0.07288716 0.06335779
0.06649518 0.05373893 0.08556657 -0.029037964 0.0816616 0.0067395465 -0.28402895 -0.13789438
0.0032643399 -0.07801126 -0.020863695 0.14493065 -0.027015055 -0.064644806 0.12205939 0.019904977

layer1.0.bn2.weight f4 [16]
00000000: 5cfd 953e 3bb1 193f 92c0 aa3e 7bdc 113f
00000010: 4a51 d43e c18c 353f 2cee d73e 0eae a63e
00000020: 308d 8a3e c0e5 173f dc49 793e 522d e33e
00000030: 721f e13e f59a 013f f5ba 593e 7a79 363e
0.2929486 0.6003606 0.33350044 0.5697705 0.4146827 0.709179 0.42173898 0.32554668
0.27060843 0.59334946 0.24344581 0.44370514 0.43969303 0.5062707 0.21262725 0.17819777

layer1.0.bn2.bias f4 [16]
00000000: a496 ef3e b6e3 c03e a857 ee3e 0e47 be3e
00000010: 720c b73e ffd6 fd3e 313c d13e 7a5d f33e
00000020: 462f 91bd 524a 813e 6a72 863e 6f3a 663e
00000030: 2cf4 933e 217e e73e ed25 bc3e b3a9 973e
0.46794617 0.3767373 0.4655125 0.37163585 0.35751683 0.49578092 0.40866235 0.47532254
-0.07089095 0.25252014 0.26259166 0.22483228 0.28897226 0.45213416 0.36747685 0.29621658

layer1.0.bn2.running_mean f4 [16]
00000000: 49cb 68be d46f eabe 66f8 ccbd 9f3f 0abe
00000010: c524 8b3d 63d3 d13e c876 ce3e aac1 b9be
00000020: faf9 ad3e 7a6c 6f3e c182 ddbd 9dcb fcbe
00000030: bfeb ddbe 224b 38bf 5a89 60be 4593 8a3d
-0.22733797 -0.45788443 -0.10008316 -0.13500832 0.067941226 0.40981588 0.40324998 -0.36280566
0.3397978 0.23381224 -0.10815955 -0.49374095 -0.43343922 -0.71989644 -0.21927395 0.06766371

layer1.0.bn2.running_var f4 [16]
00000000: 99c1 163e 0016 e93e 390d 0b3e dfea 953e
00000010: f7b6 353e 996e dc3e 922b 103e 5972 9a3e
00000020: 6d00 243e 7a0d e23e 91d7 083e 1e42 533e
00000030: d682 0b3e 55d9 a33e 5d53 f83d 8538 c23d
0.14722289 0.45524597 0.13579263 0.29280755 0.17745577 0.4305313 0.14079121 0.30165365
0.16015787 0.44150907 0.13363482 0.2063069 0.13624129 0.3200175 0.12125275 0.094834365

layer1.1.conv1.weight f4 [16, 16, 1, 1]
00000000: 2f43 d8bd b459 ea3d a7b6 cb3d f47c 8bbd
00000010: 6913 3aba dbf7 47be aacf 0c3e 0141 15bc
00000020: 2630 b0bd 0fed e3bc 21fb 133e 1ef8 a6be
00000030: 5ee3 81bd 65c3 8f3e 9c11 3abd bfd4 99bd
00000040: a2d5 56be 726e 9ebb a1d9 d43c 477d 87bc
00000050: 7111 3cbd 13b3 4e3e abf6 2f3c aa52 5ebe
00000060: 3765 24bd bb25 533d 0bb2 04be 46a9 2b3e
00000070: 5a1a 4f38 9b38 0b3e b3f8 993e 6576 573c
00000080: 1048 eebc 323a fd3d bad8 9ebd e76c 91be
00000090: 207b 7e3d 791d 5cbd ce40 2c3e 3265 223e
000000a0: 5b4f b0bd f524 02be c0bc 2dbe 15bb ccbc
000000b0: 5211 153d f3d5 893e 5be1 35be 0bbd b43b
000000c0: a643 633e a9fc eebe 0ace 15bd 8814 6d3b
000000d0: 3ef5 b4bd 69ac ac3d 891a 65bd 7d31 cebe
000000e0: b7c4 babe dcb9 fcbb 32bb 0f3e b945 05bd
000000f0: bb10 73be 29a0 09be 7758 4f3d 1d6a 85bd
00000100: 7fe5 55be 4f77 9bbd 7dba 823c 8514 dabc
00000110: 2c6b 6a3d 6337 2d3e 89f3 183d 0750 183e
00000120: 049e d03e fe35 3e3d 91d0 63bd 968e adbd
00000130: 8e8d 003e d675 47be 5a8a bd3d 5576 243d
00000140: 3ced 27be 66b7 483d e936 73bd 0005 8b3d
00000150: 4f66 26bc 1adc b93d 5873 c8bd 0ba9 8ebe
00000160: a1a2 543e 9506 ae3c 4faf d1bc 5dcc 343d
00000170: a2b1 fe3d f4c0 763e e2a2 b4bd a75a b73d
00000180: dec7 11be 62e3 af3e 15c5 11be 49e0 c13c
00000190: 06e7 213e 01d0 183b ddb8 9fbe ec60 47be
000001a0: 5049 853d 4230 4c3e 2fa2 aabc a81b 9cbd
000001b0: 201a 533d a088 163e 21bb a0bd 7a89 02be
000001c0: 8569 b23d a4b2 f53d 808b d03d 144a 2f3d
000001d0: a82f 95b9 cb0a 8bbd 1974 9bbd 0981 d73d
000001e0: 6665 a23d aea6 993e f861 a93d 8cce 723c
000001f0: 8d5b 83bd cb2e 2dbe a798 563e ec1a c23d
00000200: 2bb1 0f3d 5765 fcbd 2b2d 75be 9ec8 85be
00000210: 96cf 5a3e 5b9b 003e d9a7 d7bc bdc9 373e
00000220: 6fdc cdbd e8e4 ed3c 3d9e 9ebd e25e ee3a
00000230: cf08 033e b09f 0e3c 4d68 f9bd 52da a2be
00000240: 1dae 933b c257 b6be 9294 5b3d 86f7 513d
00000250: 403b a73c ea2a 93bd a3e4 87bd c717 5abe
00000260: cb2f 4cbe c2fd f3bc 79e1 86bc 1261 ef3c
00000270: 66f8 79be e6bd 1cbe db58 623e 1f85 e53c
00000280: 3d78 1a3e 2f2d 453e 7064 9a3d 4c66 23bb
00000290: 44c7 98bd f304 46be 9f53 89bd fd33 133e
000002a0: ecd0 b8bb f5e5 e4bd 8998 f1bc b89e 23bd
000002b0: ccc9 dc3b 7d08 5ebd c729 883e 8e9e 5abe
000002c0: 0612 163d fd4b d23c d70f 313d 3f96 673b
000002d0: 1abb 8a3b 8d98 323d 6e8d 02be 9be8 073d
000002e0: 4358 0dbd 8192 76bb 6bc2 a63d eda5 103e
000002f0: 0805 2fbc 92b8 6ebd af5f 2bbd ecab 4e3d
00000300: 115b 39be 2e8d d93d 0b10 973d 4cf8 37bb
00000310: 1ba1 65bd 2614 91bd a3e1 0ebd a5d3 c53d
00000320: 3f2f 96be f391 f9bc 24a7 e1bd c0d9 39be
00000330: a187 cebd 0c10 d3bd cb6b ccbe bf0b 9bbc
00000340: fe66 20be 22ed 8a3d 0aaf 023e 5caa 93bb
00000350: 6942 b53c ecec 893d a59c fa3c 3d00 5f3d
00000360: 23e1 b83c 54e2 febd ca9e aa3d 5df5 fc3c
00000370: fed2 d7bc 7e8e 7dbd a4e6 90bd 38a8 c23d
00000380: 9456 993e c362 c23d a9a5 733a 208e c6bc
00000390: aab7 05bd 7ab1 853e 16ed 2d3d 1966 e93d
000003a0: c1c5 21bd 71a2 bd3e 239e 523d 4869 043e
000003b0: d0e7 4dbc 3ec6 333b 880c 15bd 8d7b f93d
000003c0: 07e9 8dbd b12f df3d c890 593e 3e73 57be
000003d0: a805 3d3e 3300 c13a f398 cebd 503b 4a3e
000003e0: 9956 b13d 7f26 1abd e561 ed3d 25dd ea3d
000003f0: 9d3c 7dbd 41c5 d0bc 45b7 3e3c 4394 4cbd
-0.10559689 0.11442891 0.099469475 -0.06810942 -0.0007098229 -0.19528143 0.13751093 -0.009109736
-0.086029336 -0.027823 0.14451267 -0.32611173 -0.06342195 0.28078762 -0.04542695 -0.07511281
-0.20979932 -0.0048349435 0.02598268 -0.01653923 -0.04591507 0.20185499 0.010739963 -0.21711221
-0.04013559 0.051549654 -0.12958543 0.16763791 4.9377188e-05 0.13595812 0.30072555 0.013150786
-0.029087096 0.123646155 -0.07756181 -0.28403398 0.06212914 -0.053739045 0.16821596 0.15858915
-0.08608886 -0.1270941 -0.16966534 -0.024991551 0.03639347 0.26921043 -0.17761748 0.0055156997
0.22193775 -0.4667714 -0.036573447 0.0036175568 -0.08835839 0.08431322 -0.05593351 -0.40272132
-0.36478207 -0.007712586 0.14036253 -0.032537196 -0.23736851 -0.13440003 0.050621476 -0.0651438
-0.20888327 -0.07591116 0.015958065 -0.026621113 0.057231113 0.1691566 0.03734163 0.14874278
0.40745556 0.04643821 -0.055618826 -0.08474462 0.12553999 -0.19478545 0.09254904 0.040151913
-0.16399091 0.049003027 -0.05937854 0.06788063 -0.010156228 0.09075184 -0.09787625 -0.27863345
0.20765163 0.021243373 -0.025596289 0.04414021 0.124362245 0.24097043 -0.0882013 0.089528374
-0.142364 0.34353167 -0.14235337 0.023666518 0.15810785 0.002331734 -0.31195727 -0.19470567
0.06508124 0.19940284 -0.020829288 -0.076224625 0.051538587 0.14700556 -0.07848192 -0.12747756
0.087115325 0.119969636 0.101828575 0.042795256 -0.00028455 -0.06789168 -0.07590503 0.105226584
0.079294965 0.3000998 0.08270639 0.014819752 -0.06413946 -0.16912381 0.2095667 0.09477791
0.03508107 -0.123240165 -0.23943011 -0.2612962 0.2136825 0.12559263 -0.026325153 0.17948051
-0.1005181 0.029039815 -0.07745025 0.0018186236 0.12796329 0.008705065 -0.12178097 -0.3180719
0.00450684 -0.3561383 0.053608485 0.051261447 0.020413995 -0.071859196 -0.06635406 -0.21298133
-0.19940107 -0.029784087 -0.016464936 0.029221091 -0.24411163 -0.15306816 0.22104208 0.028017579
0.1508493 0.19255517 0.07538688 -0.00249328 -0.07459882 -0.19337825 -0.067054026 0.143753
-0.00564014 -0.11176673 -0.02949168 -0.039946288 0.0067379232 -0.054207314 0.26594374 -0.21349546
0.036638282 0.025671 0.043227997 0.0035337356 0.00423373 0.043602515 -0.12749264 0.033180814
-0.034508 -0.0037623944 0.08142551 0.14125796 -0.010682352 -0.05828149 -0.041839298 0.050456926
-0.18101145 0.10622631 0.07376107 -0.002807158 -0.056061845 -0.07083921 -0.034883153 0.096595086
-0.2933292 -0.030465102 -0.11018208 -0.18149471 -0.10084463 -0.10305795 -0.3992599 -0.0189265
-0.15664288 0.06783511 0.12762085 -0.0045063924 0.022126393 0.067346424 0.030592272 0.054443587
0.022568291 -0.124455124 0.08331068 0.030878717 -0.026345726 -0.06190347 -0.07075241 0.095047414
0.29948866 0.094914936 0.00092943996 -0.024237692 -0.03264586 0.26111966 0.04246243 0.11396427
-0.039495233 0.37037995 0.051420342 0.12930787 -0.012567475 0.0027431394 -0.036388904 0.121817686
-0.06929212 0.10897768 0.21246636 -0.21040055 0.18459189 0.0014724791 -0.100877665 0.19749188
0.08659095 -0.03763437 0.115909375 0.11467961 -0.061825383 -0.025484683 0.011640375 -0.04994608

layer1.1.bn1.weight f4 [16]
00000000: 8ac5 2c3f b205 1a3f 5d1f 243f 9cdb 273f
00000010: 42fe df3e aa77 ed3e 6f4b 313f b783 0a3f
00000020: 2575 253f 501c 0b3f 870a 1b3f 45c0 6f3e
00000030: 749f e73e e8d8 8a3e 2001 313f 9b0f e73e
0.6748892 0.6016494 0.64110357 0.6556947 0.4374867 0.4638036 0.6925573 0.5410723
0.64631873 0.54340076 0.6056294 0.23413189 0.4523884 0.2711861 0.6914234 0.45129094

layer1.1.bn1.bias f4 [16]
00000000: ebdb 4fbe 1288 75be eea4 acbe 2a63 c33e
00000010: 661e a93d 2e62 043e fd0a 96be f219 29be
00000020: ace5 82be a7d6 8d3e 5b68 9bbd 7302 5abc
00000030: 9f73 9d3e 79eb a43a 247f debe eccd 213d
-0.20298736 -0.23977688 -0.3371958 0.38161594 0.08257751 0.12928078 -0.29305258 -0.16513804
-0.2556585 0.2770283 -0.075882636 -0.013306248 0.30752274 0.0012582383 -0.43456376 0.039503023

layer1.1.bn1.running_mean f4 [16]
00000000: d81b b2be f7e3 a13f 711b 4bbf 69e1 09c0
00000010: fd6c f63e 9474 653f ab0e 6cbf e175 0f40
00000020: 2b8d 25c0 81a6 a1bf d019 cdbf 56be 743f
00000030: 358b 30c0 7fb0 973f 9e5d 8040 7689 de3f
-0.34786868 1.2647694 -0.7933875 -2.154383 0.48130026 0.8963101 -0.9220988 2.2415698
-2.5867412 -1.2628938 -1.6023502 0.9560293 -2.7584965 1.1850737 4.011428 1.73857

layer1.1.bn1.running_var f4 [16]
00000000: 55b2 2741 56cc ba40 cf7c e440 40e9 2241
00000010: f069 b540 2d02 5340 82de e340 8878 7d40
00000020: 9bca fb40 bfe4 b940 8658 3140 bf2b c03f
00000030: f0d0 be40 30a1 1140 78b0 f740 3edb 8c40
10.481038 5.8374434 7.1402354 10.181946 5.669182 3.2970078 7.1209116 3.9604816
7.868482 5.809173 2.771028 1.501335 5.963005 2.275463 7.7402916 4.401763

layer1.1.conv2.weight f4 [16, 16, 1, 1]
00000000: 62be 853d a673 c83e 33e2 8e3b 5a58 e93b
00000010: 22a4 283e 35b1 c2bd a047 e3bc 1e5a 113e
00000020: 2963 f4bd 1559 743d b9cd 503e 23a7 aabd
00000030: 7133 54be e70d 51bd 6e84 acbe 1c34 fdbc
00000040: 3fbb da3d 5609 46bd 81e8 493e bbe3 3bbe
00000050: 5c65 db3d 9855 1c3d 3065 afbe 530f ed3c
00000060: ec10 2e3d c290 25be 3b5d 213e ff68 493d
00000070: 29d6 d93c d728 ae3d 5525 24be 9377 ae3d
00000080: c615 1fbd 7148 253d 2fe0 9abd c6d2 1fbd
00000090: 3647 12bd 47af 583d 29a9 bbbd a4b4 313d
000000a0: ccf6 e9bd 95ae 6f3d a9be 263d 5eda 17bc
000000b0: f6e0 163d 8009 dbbd ee8f d9bd fad6 12bd
000000c0: 6084 8a3d 6132 82bd 2091 febd 8868 28bd
000000d0: 023c db3c bf5f a93c fe0c d6bc d649 42be
000000e0: f83c 3fbe c17a 563d 9299 6cbd bbbb 653d
000000f0: 50e6 b2bd ea55 93bc 7601 63be e59e 27be
00000100: 19c8 fdbb 0169 30bd 54f8 a73c a67e 17bb
00000110: 6003 b5bc f5fa f9bc a27f 543e 7922 463c
00000120: cf4f c33d 224f 123c b65f d1bc 2888 963d
00000130: 8cef aa3b 9c07 053d feea 5b3e ae29 993e
00000140: 16cd d53c 1118 cf3c 0f51 523e 8407 0e3e
00000150: b224 f23d 952b 123e 0c62 7f3d a775 e43c
00000160: 0155 e93b 1abb 943b edb7 f8bb 4da6 013d
00000170: fdda 423d 7cc5 813d 0444 0d3e 8c34 9a3d
00000180: 55a5 d53d f406 653c 388e 18be f602 0cbc
00000190: e064 32bb 7d8c 9c3b 3ef1 04bd 3509 4c3d
000001a0: 01bb 143e f1b3 05be 108e 82bd 1d94 dcbd
000001b0: 173e 5f3d d7ba 59bd 9236 9b3e 2b89 bebc
000001c0: 24ae aa3e f500 3bbe 6678 653d e8d7 09be
000001d0: 51de 363e 5e72 a9bd 06aa 3cbd 1461 583e
000001e0: fb15 83be 7bee a8bd 8122 7dbd 7c7c 7ebd
000001f0: 7712 643d 07ae b1bd af3c bb3d e555 47bd
00000200: c34e 8abd c6f5 80bc e549 34be 9ee2 3fbe
00000210: 93c1 a83c 43dd d93d b3c2 cb3d 826f ddbc
00000220: 02d9 1bbe e1c9 37be 23f9 2a3e c53f 9ebd
00000230: afe3 25be 5aa8 913d 0ebc 21be 7821 fdbd
00000240: 47fd e53e 8b68 663e ddd6 133e 5f2f b1bd
00000250: 39e8 173d 400a 1c3e bb45 993e d621 143e
00000260: 86be 0abc 3786 103e a568 0a3d 30e1 583b
00000270: 4f6b 5d3d 8377 eabc b047 833e f567 fc3c
00000280: 1da5 8c3d 3725 edbc 7162 abbd 5863 e33c
00000290: e7b2 f2bb cf47 22bc 87bc cb3d a3dd 37be
000002a0: 0ae6 e9bc 1790 8cbd a712 9abc 7d5c 8d3d
000002b0: 7e27 cf3d 00cf 5d3d 8ba4 3cbe c022 3bbd
000002c0: 5bb5 533d 9fe1 42be 59a9 473e a136 163d
000002d0: fea0 a5bd 7e81 0bbd 0b14 a1bb cad4 113e
000002e0: c530 12be e256 4a3b a5a5 c33d 2bf0 c9bd
000002f0: 0478 13be 2ae3 783d ec79 19be 37ca 323c
00000300: 8a76 a2bd daf2 05be 9f4e e0bd 707a 823d
00000310: 95d4 303e e819 183e 90bf a93d a538 973d
00000320: faf2 95be c809 c7bd 0cc8 40bc 8057 8cbb
00000330: e455 f1bd f0f4 d7bc 66a6 a4bd 1bcd 73bd
00000340: fe47 c6bc 9943 093e df27 ddbe baf0 b7bd
00000350: bfcf 9abd e3dc 6d3d 5b6a 81bd 1268 14be
00000360: 1027 523e 44c0 b8bd 27b7 143c dca5 10bc
00000370: d228 e93c fe4d fcbb e41f cd3d 2118 c53b
00000380: e559 ab3c 57c1 a8be b6d8 2e3d abbe 283e
00000390: 4574 1a3e 36e9 3fbc 2909 3cbe 8814 963d
000003a0: 1665 22bd b0ef 0cbe 3cec 2e3e b69d 013d
000003b0: 1f48 2dbe cb7d 10bc 99d4 f0bd 013a a7bc
000003c0: ab17 0ebe a6ba 34bd 381f 9abc 9dce d3bc
000003d0: 8430 f6bc ba63 383e d54d 843d 6db7 44bd
000003e0: 8f27 273d 6a4d d83c b7ac 31bd a7c7 d0ba
000003f0: 9563 313d 4be9 dc3b 852c 093c c258 b03d
0.06530453 0.39150733 0.004360461 0.007121128 0.16468862 -0.09506456 -0.027744114 0.14194533
-0.11932976 0.059655268 0.20390977 -0.0833266 -0.20722748 -0.05103865 -0.33694786 -0.030908637
0.106802456 -0.048348747 0.197176 -0.18348591 0.10712692 0.038167566 -0.34256887 0.028937971
0.042496607 -0.16168502 0.15758221 0.049172398 0.026591377 0.08503883 -0.16029866 0.08518901
-0.038839124 0.04035229 -0.07562291 -0.03901937 -0.035712443 0.052901533 -0.09163124 0.043385163
-0.11424026 0.058516104 0.04070917 -0.009268371 0.036835633 -0.10695171 -0.106231555 -0.03584955
0.0676353 -0.06357265 -0.12430024 -0.041115314 0.026762012 0.020675538 -0.026129242 -0.18973479
-0.18675601 0.05236316 -0.057763644 0.056087237 -0.08735335 -0.017985303 -0.22168526 -0.16369207
-0.0077448008 -0.04306889 0.020504154 -0.002311626 -0.022096336 -0.030515173 0.20751813 0.01209318
0.09536707 0.00893 -0.025558334 0.073501885 0.0052165445 0.03247796 0.21476361 0.29914612
0.02609877 0.02528003 0.20538734 0.13870054 0.11823405 0.14274438 0.062349364 0.027888132
0.007120729 0.004538906 -0.007590285 0.031652737 0.047572125 0.06336495 0.13795477 0.07529554
0.10431925 0.013978709 -0.14898002 -0.008545628 -0.002722077 0.0047774897 -0.03245663 0.049813468
0.14524461 -0.13056923 -0.063747525 -0.10770438 0.054502573 -0.0531567 0.3031507 -0.023258766
0.33335984 -0.18262084 0.056023024 -0.13461268 0.17858244 -0.08273767 -0.046060584 0.21130782
-0.25602707 -0.082486115 -0.061800484 -0.062130436 0.055681672 -0.08675771 0.09142434 -0.0486659
-0.06753304 -0.015742194 -0.17606314 -0.18738791 0.020600116 0.106379054 0.09949245 -0.02703071
-0.152195 -0.17948104 0.166966 -0.07727007 -0.16200136 0.07112189 -0.15794393 -0.12359899
0.44919798 0.22500817 0.14437433 -0.086516134 0.0370867 0.15238285 0.29936013 0.14466032
-0.008468276 0.14113699 0.033791203 0.0033093207 0.054057416 -0.02862144 0.2564063 0.03081129
0.0686743 -0.02894841 -0.083683856 0.027757332 -0.0074065807 -0.009904816 0.09948068 -0.17955641
-0.028552074 -0.068634205 -0.018807722 0.06902406 0.101149544 0.05415249 -0.18422143 -0.045687437
0.051686626 -0.1903138 0.19498195 0.036673192 -0.080873474 -0.03405904 -0.0049157194 0.14241329
-0.14276417 0.003087454 0.095530786 -0.098602615 -0.14401251 0.060763516 -0.14987916 0.01091247
-0.07932766 -0.13080922 -0.10952496 0.06371009 0.17268594 0.14853632 0.08288491 0.07383851
-0.2928694 -0.097186625 -0.011766445 -0.0042828918 -0.117839605 -0.026361912 -0.080395505 -0.059521776
-0.02420425 0.13404693 -0.43194482 -0.08981462 -0.07559156 0.058071982 -0.06319114 -0.14492825
0.20522714 -0.09021047 0.00907687 -0.008828606 0.028461847 -0.007699727 0.10015848 0.0060148393
0.020916888 -0.32960007 0.04268714 0.16478984 0.15083416 -0.011713317 -0.1836287 0.07328135
-0.039647184 -0.13763309 0.17082304 0.031644545 -0.16922043 -0.008819054 -0.117593 -0.0204134
-0.13876216 -0.044123314 -0.018813714 -0.025855357 -0.03005243 0.18006793 0.06460158 -0.04802649
0.04080921 0.026404101 -0.043377604 -0.0015928642 0.04330786 0.006741678 0.008372431 0.08610679

layer1.1.bn2.weight f4 [16]
00000000: fb7f 103f e76d e63e d166 213e 7de4 8c3e
00000010: 16b3 ac3e f99c 463e 2e5d 893e 069b bc3e
00000020: ad33 b63e cbe9 fe3e f691 623e 3aca 6b3e
00000030: b32b c63e fac6 b33e 5540 aa3e deb4 9c3d
0.5644528 0.45005724 0.15761878 0.27518073 0.33730382 0.19395818 0.26828903 0.36837023
0.355863 0.49787745 0.22125992 0.23026362 0.38705215 0.35112745 0.33252206 0.07651685

layer1.1.bn2.bias f4 [16]
00000000: fee6 983e f1f4 b33e 84ce 2a3e daa2 003e
00000010: 9ce7 6e3e 9c9b 4a3e ea8c 623e 483c a83e
00000020: aaad ee3e 8646 2b3d 66a3 053e a9f1 9a3d
00000030: 51cf 3f3e d007 ce3d 3844 c93e e851 e83d
0.29863733 0.35147813 0.16680342 0.12562123 0.2333054 0.19785923 0.22124067 0.3285849
0.4661687 0.041815303 0.13050613 0.07565624 0.18731429 0.10060084 0.3930986 0.113437474

layer1.1.bn2.running_mean f4 [16]
00000000: af33 82bc a93c c2bd 5fea c9bc 7227 1ebe
00000010: 6bce db3d 6b2e 633e 248f 1b3b dbbb 7dbd
00000020: 89e2 87be c9d2 923e 2327 8abc fe45 5ebd
00000030: 29fa a2bd d137 bfbd 2f68 67bd 4f66 1c3d
-0.015893785 -0.09484226 -0.02464789 -0.15444735 0.107327305 0.22185676 0.0023736442 -0.06194673
-0.2654002 0.2867644 -0.016864365 -0.05426597 -0.079578705 -0.09336818 -0.05649584 0.038183507

layer1.1.bn2.running_var f4 [16]
00000000: 193d a43d 49ec 753d 71be 1a3c dc50 fa3c
00000010: cad3 f93c 7e75 8b3c b44b ae3c f7c8 273d
00000020: d20b 293d 5e05 b83d fb76 6b3c 8294 9b3c
00000030: ed29 da3c b167 df3c 0039 cb3c 47eb 103c
0.08019466 0.060039792 0.009444819 0.030556135 0.030496497 0.017023798 0.021276332 0.04096314
0.04127104 0.08985399 0.014371629 0.018991712 0.02663132 0.027271124 0.024807453 0.008845157

layer1.2.conv1.weight f4 [16, 16, 1, 1]
00000000: e15f a5bc f74b 9b3e 6e94 8f3b 7cc8 27bd
00000010: 5ad9 6cbd fb5c af3c cbce f03d 998c b8bd
00000020: d94b 87bd 16c5 003d b497 dcbc 4fcd 3dbd
00000030: 3963 dfbd 5b4b 023e 1eb8 42be 1f1f a7bc
00000040: a512 35be f488 623c c8cd 1cbd 7de0 543e
00000050: bc5a 773d 4472 4b3d 3985 e0bd 4c9c 82bd
00000060: 6018 1ebe 8d15 d13c 41f7 2abe 1f0c d23d
00000070: 7111 0f3d 1489 fc3d 2d7d 52be 10ca 3c3d
00000080: 6212 1a3e 0c18 6ebe a5b4 813e 5145 a9bd
00000090: 1be5 35be 34ef 69bd 151f 3c3d 6c97 50be
000000a0: e45a 3f3d d783 433e f819 24bc 7277 f9bc
000000b0: 1751 abbd 68c5 ed3d 74d5 2d3e d564 f3bb
000000c0: 29b2 f7bc 0410 9bbd 97e5 91bd ac1b 24be
000000d0: ac86 91be fb58 a9bd 9ada 043e 2206 233e
000000e0: 46fb d7bd 8846 ec3c d820 7c3d 8fa7 8e3d
000000f0: ee01 9cbd 8764 8fbb 1b0d 14bd 7137 4a3d
00000100: b7ac 95bd 9bc6 b53c 60f3 c43a 0123 f93d
00000110: 46bb 093d be37 a13d c9bb 173e 0299 3d3e
00000120: 99be 713d a275 7c3c 676f acbc 8441 fe3d
00000130: 0a76 e03d 2af4 b6bd f003 3c3e 087b 663e
00000140: b90e dbbd c287 38bd 1bfa 21bd 60cb d4bc
00000150: 3d85 753d e266 90bd 82fe df3d e8fc 0d3e
00000160: 630b 9abd a5e4 703d 4809 653d f2a7 473d
00000170: 0f52 0cbd 1542 18bc 0380 b23d d01d bd3d
00000180: 49bf bfbb 6685 7ebd 8d22 4bba 2023 5bbd
00000190: abe4 cebd 107e 8c3d 4b03 233e 6ab3 c53e
000001a0: ecb0 c7bd d9ae 75be 9fac a4bc 6d7d cd3d
000001b0: 5ab1 d7bd 685f 21bd a19f e1bd fe4c 99be
000001c0: b321 41be 590a 5bbe e68d a53d e647 9c3d
000001d0: 0501 5ebd 56f2 97bc 398b a8bd 78b3 38be
000001e0: 4910 f13d 20dc e23c 606f ffbc 95c3 27be
000001f0: e45d d43d d293 fbbc 28c0 03be 19db 42bd
00000200: 804c 98bd 4815 143e 3ec7 ad3e dffc e53d
00000210: d8a1 aa3e d459 88bd c459 70bd aaa1 453e
00000220: 19fa b7bc 6da5 7bbb 0917 e63d af29 a4bd
00000230: f80b 173d ccca a83c c28a 08bb dfa8 98bd
00000240: a845 3abc 155a 0cbe 3e24 88be 9f69 66bc
00000250: 0e48 1dbe fd0e 03be 172f 2bbd 04ea 1e3d
00000260: 4f36 df3d 1509 adbd 4a35 323e e357 7a3b
00000270: d201 743d f2a6 163d 31ff 1e3d 63c2 eb3d
00000280: 09d6 67bd 1316 213e 7687 12bd 731c 103d
00000290: 526f 60bb 946a 7abe 2c84 49bc fb3f bfbc
000002a0: 4c10 793d 973b abbc c01c 113e 685c 34be
000002b0: 2dc8 563b 179d 483d c64c 50bd 00e4 8d3d
000002c0: b539 0f3e 9f10 7cbe e899 e93d 2adb 0f3e
000002d0: 37a6 2f3d f591 353e ff22 e83e cd70 653e
000002e0: bcbe 32be 71a3 e13d 2d3b dbbd f450 203d
000002f0: a12c 54bd 9ae8 69be 0962 493d e1c6 dd3d
00000300: b3f6 973d 29c8 f1bd 2c24 26be 5752 dcbc
00000310: 08f1 3fbe 0c87 94bd a19d 18be ff10 8dbd
00000320: 3b40 c6bd e883 8b3c d3a6 dbbd dcbb 21bd
00000330: 2430 b4bd b093 6bbd fdb0 42bd 4f01 72bd
00000340: d806 06be 61ea 8dbe c7cc 8abd e505 ffbb
00000350: cce2 953d f9e3 82be d15b ffbb a3d2 34be
00000360: 95a4 4dbe 9372 963d 48ff 873e 748d 6c3d
00000370: ad30 acbd 19c5 2cbe 53d6 cfbc dd4b 9b3d
00000380: 8cae bb3d b69e 64bc 03a4 7dbd 5d1f 08be
00000390: 1cd2 f33c 7b98 9b3e b981 4c3d d84d 0f3f
000003a0: 5d60 f7bd 99a6 163e b7f2 ec3c 633f ed3c
000003b0: b827 33be 859d f73d 7828 6d3d bdbd 9bbc
000003c0: 9b89 c83d 376e 103d 2a49 1ebb 2bb6 b43d
000003d0: 6af1 a43b 6539 943c ff29 25be 7199 fe3d
000003e0: fc3d 613d 1252 5c3d 30c8 f1bc 3b75 d73d
000003f0: 48f6 1bbd 64fe d0bd dec9 01bd 8596 423d
-0.02018732 0.30331394 0.004381708 -0.04096268 -0.05782447 0.021406641 0.11758193 -0.09011192
-0.06606264 0.031437956 -0.026927806 -0.046338376 -0.10907597 0.12724058 -0.19015548 -0.020400582
-0.17682894 0.0138265975 -0.038282186 0.2078876 0.060389265 0.04966952 -0.1096291 -0.063774675
-0.15438986 0.025522972 -0.16695882 0.10256218 0.034928743 0.12330833 -0.20555563 0.04609114
0.15046075 -0.2325136 0.25333133 -0.08265174 -0.17763178 -0.057112888 0.04592808 -0.20370263
0.04671754 0.19093262 -0.010015957 -0.030452464 -0.08365076 0.11609918 0.16975957 -0.0074277916
-0.03023632 -0.07571414 -0.07123869 -0.16026181 -0.2842306 -0.08268925 0.12974015 0.15920308
-0.105459735 0.028842226 0.06155476 0.06965553 -0.076175556 -0.0043759975 -0.03614531 0.04936928
-0.07308333 0.022189429 0.0015026145 0.121648796 0.033625863 0.0787196 0.14817728 0.18515399
0.05901966 0.015408905 -0.021049215 0.1241484 0.10960014 -0.08933289 0.18360877 0.2250787
-0.106961675 -0.045051344 -0.03954516 -0.025975883 0.05994152 -0.07050873 0.109372154 0.13866007
-0.07521703 0.058811802 0.055917054 0.04874415 -0.034257945 -0.009293099 0.087158225 0.09234202
-0.0058516604 -0.062138937 -0.0007748984 -0.053500295 -0.10102209 0.06859982 0.15919225 0.38613445
-0.09750542 -0.2399248 -0.020101843 0.10033689 -0.10531874 -0.039397627 -0.11016775 -0.29941553
-0.18860511 -0.21390666 0.080837056 0.07630901 -0.05420019 -0.018548172 -0.082296796 -0.18037212
0.11770684 0.027692854 -0.031181037 -0.16383202 0.10369471 -0.030710135 -0.1286627 -0.04757223
-0.07436466 0.14461243 0.33941072 0.11229872 0.33326602 -0.06657758 -0.058679357 0.19299951
-0.022458123 -0.0038398162 0.11234862 -0.08015763 0.03687665 0.020604514 -0.002083466 -0.074540846
-0.011369146 -0.13706239 -0.2659015 -0.014063268 -0.15359518 -0.12798686 -0.041792955 0.038797393
0.108990304 -0.08448998 0.1740314 0.0038199357 0.05957205 0.036780305 0.03881759 0.11511686
-0.056600604 0.15731077 -0.035773717 0.03518338 -0.003424604 -0.24454719 -0.012299579 -0.023345938
0.060806558 -0.020902438 0.14171124 -0.17613375 0.0032773123 0.048977938 -0.050854467 0.06928253
0.13986857 -0.24615715 0.114063084 0.14048448 0.042883124 0.1773146 0.453392 0.22406311
-0.17455572 0.11017502 -0.10704646 0.039139703 -0.051800374 -0.22842637 0.04916576 0.10828949
0.07420101 -0.11805756 -0.16224736 -0.026894731 -0.1874429 -0.07252321 -0.1490388 -0.068880074
-0.0968022 0.017030671 -0.107251786 -0.039485797 -0.087982446 -0.057513893 -0.04753207 -0.05908328
-0.13088548 -0.2771788 -0.067773394 -0.007782685 0.07318649 -0.25564554 -0.007792928 -0.17658477
-0.20082314 0.07346072 0.26561952 0.057752088 -0.08407722 -0.16872062 -0.025370752 0.07582829
0.091641515 -0.013953855 -0.061923992 -0.13293214 0.029763274 0.3038977 0.0499284 0.55978155
-0.12078927 0.1471199 0.02892433 0.02896089 -0.1749562 0.12090591 0.057899922 -0.019011373
0.09791871 0.03526136 -0.0024152496 0.08823808 0.0050336616 0.018093774 -0.16129301 0.124316104
0.054990754 0.053789206 -0.029514402 0.10520407 -0.03807667 -0.10204771 -0.031686656 0.047506828

layer1.2.bn1.weight f4 [16]
00000000: 25c9 dd3e c322 e43e 778d 1f3f b2e3 fe3e
00000010: b09a fe3e ea27 883e 665b 203f 4b1c ed3e
00000020: 8c2e 0d3f 1516 de3e 52c8 df3e 4283 2a3f
00000030: 81ef e93e 02ca 223f 4aed 543f dbc7 c13e
0.43317524 0.4455777 0.62325233 0.49783093 0.49727392 0.26592952 0.6263946 0.46310648
0.5514915 0.43376222 0.4370752 0.66606534 0.4569054 0.6358949 0.83174574 0.3784779

layer1.2.bn1.bias f4 [16]
00000000: a0be f5bd 5592 043d 9341 4bbd f48a cabd
00000010: 196a f0bd 9ac2 5ebd 9b6d 1f3d ccb6 193e
00000020: 01d4 b0bb c7d5 e6bd 5659 0c3e cee8 82be
00000030: 3f2a ce3d 4473 813d a4a7 87bf 6f51 853c
-0.119992495 0.032366116 -0.049623083 -0.098897845 -0.117389865 -0.054384805 0.038922887 0.15011138
-0.0053963666 -0.112712435 0.13705954 -0.2556824 0.100666516 0.06320813 -1.0598035 0.016274182

layer1.2.bn1.running_mean f4 [16]
00000000: ac87 083e 4bbd 163e d618 933f 7f09 80bf
00000010: 45b5 4940 befc 8d3f f437 e4bf 1899 ddbf
00000020: 2c2b 4b40 e4d9 b5bf b09a 18bf 6027 4640
00000030: 9a66 75c0 0474 57bf 7193 1940 f1c5 0a3f
0.13333005 0.14720647 1.1491954 -1.0002898 3.1516888 1.1092756 -1.7829576 -1.7312346
3.17451 -1.420712 -0.59611034 3.0961533 -3.8343873 -0.841614 2.399624 0.54208285

layer1.2.bn1.running_var f4 [16]
00000000: 7eca 5e40 eca4 4e40 1934 e140 e633 6f40
00000010: e44b a340 cdba d13f 3809 c940 5480 7840
00000020: 5472 c640 da3f 8d40 faee 8440 da9d 0c41
00000030: c07b 7f40 2f2e 0741 fea2 3e41 f6fc 1340
3.4811091 3.228816 7.0376096 3.7375426 5.103014 1.6385132 6.2823753 3.8828325
6.201456 4.4140444 4.154172 8.788538 3.991928 8.448775 11.914793 2.3123145
