save_CIFAR10_model/channel/model_resnet-20--channel*0.25.pt (torch, 112304 bytes, 96 tensors)

conv1.weight f4 [4, 3, 3, 3]
-0.5011277 -0.6047056 -0.9390966 0.22313654 -0.13720226 -0.3607437 1.0187124 0.799614
0.48768082 -0.06914959 0.23405813 0.14381512 -0.1363165 -0.09691901 -0.15055418 0.18050052
0.32133833 -0.00088459824 0.30402467 0.11898288 0.15275699 0.07546665 -0.42551562 -0.5760001
0.5707078 -0.0026514279 -0.6203909 1.2366471 0.19809295 0.8444088 -0.1442041 -0.467708
-0.7160005 -0.6959272 -1.7705535 -0.861492 -0.4128004 -0.5538758 0.09863285 -0.046114344
0.92574155 -0.23559016 0.08283804 0.28342658 0.19368772 -0.8427927 -0.22517554 -0.6513069
0.20085502 2.2333715 0.024654245 -0.05346541 1.4815065 0.21234736 0.43557316 -1.3275408
0.091836184 -0.9581421 2.1491678 -0.7208124 0.8203231 -0.047680564 0.43204042 0.034890823
-0.43145463 0.1526716 -1.1919097 3.3908415 -0.6719835 -0.50297695 -0.7955809 -0.9940193
0.31997973 -0.8676318 0.45321962 -1.1349479 1.793002 -0.24487194 -0.05764874 -0.14984497
0.3693066 -0.5385742 1.3957382 1.8156549 -0.0057739117 0.21126288 0.95476794 0.5140173
-1.298316 -1.1767358 0.2196108 0.11667312 -0.22611494 0.4108251 -1.1899209 -0.985867
1.607767 -1.504631 -1.5438591 -0.9302032 -0.20948212 -0.47356114 -0.4895875 -0.0026076986
0.3883549 1.1647987 0.45281288 0.5056796
00000000: e849 00bf fccd 1abf a368 70bf e87d 643e
00000010: c07e 0cbe 66b3 b8be 2b65 823f 81b3 4c3f
00000020: 4db1 f93e 4d9e 8dbd efac 6f3e 4544 133e
00000030: 8d96 0bbe 797d c6bd e02a 1abe 21d5 383e
00000040: 7586 a43e 62e4 67ba 1fa9 9b3e 4cad f33d
00000050: 546c 1c3e 428e 9a3d 2fdd d9be be74 13bf
00000060: e819 123f 94c3 2dbb f0d1 1ebf 744a 9e3f
00000070: e1d8 4a3e 2d2b 583f 3daa 13be 6c77 efbe
00000080: cf4b 37bf 4928 32bf 7fa1 e2bf bd8a 5cbf
00000090: 935a d3be ceca 0dbf 0500 ca3d 65e2 3cbd
000000a0: 66fd 6c3f 8c3e 71be fea6 a93d 4a1d 913e
000000b0: 1356 463e 43c1 57bf 6b94 66be 0dbc 26bf
000000c0: f0ac 4d3e 8fef 0e40 b3f7 c93c 8cfe 5abd
000000d0: 01a2 bd3f 9671 593e 7203 df3e dbec a9bf
000000e0: 9c14 bc3d cd48 75bf f78b 0940 2987 38bf
000000f0: b200 523f b24c 43bd 6734 dd3e aee9 0e3d
00000100: 9fe7 dcbe f255 1c3e 7f90 98bf 8c03 5940
00000110: 1c07 2cbf 19c3 00bf 31ab 4bbf 0d78 7ebf
00000120: 62d4 a33e 1e1d 5ebf 670c e83e f945 91bf
00000130: 1781 e53f b6bf 7abe 1621 6cbd f670 19be
00000140: c115 bd3e 00e0 09bf 8da7 b23f 6167 e83f
00000150: 1533 bdbb 4c55 583e ac6b 743f a396 033f
00000160: 382f a6bf 479f 96bf a7e1 603e 51f2 ee3d
00000170: ad8a 67be ab57 d23e 544f 98bf c861 7cbf
00000180: 4fcb cd3f c097 c0bf 2d9d c5bf cc21 6ebf
00000190: 7b82 56be 9b76 f2be 36ab fabe ece5 2abb
000001a0: 74d6 c63e 2018 953f 17d7 e73e 3874 013f

bn1.weight f4 [4]
3.034322 6.1937532 12.34861 7.6617894
00000000: 5532 4240 3a33 c640 e893 4541 612d f540

bn1.bias f4 [4]
0.06186331 3.1067994 9.589056 6.805215
00000000: 6264 7d3d cdd5 4640 c66c 1941 52c4 d940

bn1.running_mean f4 [4]
0.00034753914 0.24085777 -0.25388604 0.06582914
00000000: ea35 b639 6ba3 763e 5afd 81be 6ed1 863d

bn1.running_var f4 [4]
5.3486953 5.1030946 5.412497 7.6851354
00000000: 8328 ab40 8d4c a340 2d33 ad40 a1ec f540

layer1.0.conv1.weight f4 [4, 4, 3, 3]
-0.031657882 0.26302624 0.24339701 -0.48619124 -0.5037414 -0.56637836 -0.066549316 -0.09559223
-0.02049774 0.10726194 -0.3823485 0.049578436 0.083886884 -0.49259877 -0.37313148 0.1982787
0.047703814 -0.04283643 -0.019839454 -0.043676596 0.15036364 0.1496824 -0.7787667 -0.01793311
0.15120219 -0.1120626 0.23616926 0.17090224 0.10072896 -0.35771793 -0.16176175 0.049785074
-0.17339613 -0.16776411 -0.26831403 -0.20552202 0.1030075 0.043252993 -0.12483405 0.5466299
0.4184787 0.19966987 0.08915666 -0.082423255 -0.2868744 0.14250079 -0.17659229 -0.33527994
0.22835813 0.27475297 0.22078237 -0.0058782073 0.08889548 -0.24872121 0.4965066 0.09099906
0.16835767 0.30266672 0.1927828 -0.0561004 0.45569488 0.3923729 0.24655503 0.28188145
0.05434053 0.083462 -0.060471933 -0.06807748 -0.06549444 0.123675935 0.034755368 0.268276
0.19243467 0.005944312 0.082477234 -0.12401896 -0.43784505 -0.38324004 0.095056675 -0.029416032
0.063774996 -0.27654374 -0.10276592 0.016617157 -0.22795364 -0.33629414 -0.0636581 -0.20369661
0.09809852 0.25629961 0.13976055 0.16317318 -0.1022886 -0.23344792 -0.05933115 -0.20400824
0.18282226 0.46970093 0.060793467 0.4723491 0.35324645 0.09691306 -0.17424405 -0.10330934
0.498702 -0.095869385 0.06908472 0.48188195 0.05915064 -0.21613511 -0.029953552 -0.029769998
-0.20250237 -0.19211401 -0.014664091 -0.19813092 -0.15700555 -0.050943486 0.11863504 -0.072452374
0.052892372 0.14584924 -0.20197637 -0.023537284 0.07242117 0.050073523 -0.017960519 0.02990393
-0.12581673 -0.1485846 -0.1605271 -0.9750485 -0.041803412 -0.011775015 -0.13963751 0.014912425
-0.067207076 0.001217152 -0.11553716 -0.039778918 -0.1910836 -0.0815411 -0.1576091 -0.07947951
00000000: b2ab 01bd 60ab 863e 113d 793e 0fee f8be
00000010: 32f5 00bf 2cfe 10bf 024b 88bd dcc5 c3bd
00000020: e0ea a7bc 26ac db3d 2fc3 c3be c212 4b3d
00000030: e3cc ab3d e835 fcbe 170b bfbe 9209 4b3e
00000040: 1365 433d 4175 2fbd 5a86 a2bc 3be6 32bd
00000050: edf8 193e 5846 193e 415d 47bf 75e8 92bc
00000060: bfd4 1a3e 1481 e5bd 5bd6 713e ff00 2f3e
00000070: fc4a ce3d ce26 b7be dfa4 25be 6feb 4b3d
00000080: c18e 31be 5bca 2bbe 7560 89be 5d74 52be
00000090: 99f5 d23d 0d2a 313d ffa8 ffbd f0ef 0b3f
000000a0: d742 d63e 4276 4c3e c497 b63d 86cd a8bd
000000b0: 34e1 92be baeb 113e 9cd4 34be d0a9 abbe
000000c0: b7d6 693e 6cac 8c3e c614 623e fa9d c0bb
000000d0: d50e b63d c6b0 7ebe 1d36 fe3e b75d ba3d
000000e0: f465 2c3e 22f7 9a3e db68 453e 88c9 65bd
000000f0: d750 e93e 1ae5 c83e ec78 7c3e c452 903e
00000100: 2d94 5e3d 20ee aa3d 6bb1 77bd 356c 8bbd
00000110: f321 86bd cf49 fd3d a55b 0e3d 795b 893e
00000120: 980d 453e 81c8 c23b d3e9 a83d a7fd fdbd
00000130: 3a2d e0be 0a38 c4be 13ad c23d e4f9 f0bc
00000140: 779c 823d 2497 8dbe f076 d2bd b420 883c
00000150: ae6c 69be bf2e acbe 2e5f 82bd d895 50be
00000160: e0e7 c83d b439 833e 641d 0f3e df16 273e
00000170: af7c d1bd f90c 6fbe 3805 73bd 89e7 50be
00000180: c235 3b3e a47c f03e 9202 793d bed7 f13e
00000190: b8dc b43e 5b7a c63d 086d 32be d993 d3bd
000001a0: de55 ff3e 2b57 c4bd 4a7c 8d3d 3bb9 f63e
000001b0: f147 723d 8652 5dbe 2761 f5bc 36e0 f3bc
000001c0: c85c 4fbe 89b9 44be a841 70bc d5e2 4abe
000001d0: 10c6 20be 1eaa 50bd eef6 f23d e961 94bd
000001e0: aca5 583d 8159 153e e5d2 4ebe 43d1 c0bc
000001f0: 8d51 943d e519 4d3d f021 93bc 16f9 f43c
00000200: 1ad6 00be 9026 18be 3761 24be c79c 79bf
00000210: 0e3a 2bbd feeb 40bc 23fd 0ebe 3e53 743c
00000220: dda3 89bd d888 9f3a bf9e ecbd 38ef 22bd
00000230: 6bab 43be 05ff a6bd 4864 21be 27c6 a2bd

layer1.0.bn1.weight f4 [4]
3.2799902 3.4169722 2.5586374 2.86892
00000000: 5ceb 5140 acaf 5a40 b7c0 2340 639c 3740

layer1.0.bn1.bias f4 [4]
2.9772744 0.05208568 1.7524204 1.759367
00000000: aa8b 3e40 cb57 553d 504f e03f f032 e13f

layer1.0.bn1.running_mean f4 [4]
-12.418643 29.828827 12.436238 -22.053213
00000000: c3b2 46c1 70a1 ee41 d5fa 4641 fb6c b0c1

layer1.0.bn1.running_var f4 [4]
200.77893 231.06894 185.11504 179.05182
00000000: 68c7 4843 a611 6743 731d 3943 440d 3343

layer1.0.conv2.weight f4 [4, 4, 3, 3]
0.3071646 -0.04973156 -0.11732017 0.39131218 0.1269189 0.14916295 -0.02221395 -0.11161235
0.06864407 -0.045973185 -0.19529215 -0.15996994 0.01690639 -0.20228422 -0.35814157 0.2349265
-0.026034769 -0.24191415 0.35739753 0.051782098 -0.28279063 0.36725765 0.28650117 0.03496016
-0.10766082 0.2899895 0.25475907 -0.13845724 -0.3992806 -0.335496 0.36968815 0.048569907
-0.120892316 0.3257372 0.28470272 0.040077668 0.09080524 -0.07483476 -0.009957335 -0.23869608
-0.4201651 0.017420087 0.034335207 -0.10453714 0.011326483 0.19784093 0.18705766 0.19402322
0.40255257 0.29886916 0.2854626 0.16458113 0.09226635 0.02161045 -0.15683553 -0.0922098
-0.12550768 -0.24726714 -0.25643742 -0.20098285 -0.15679863 -0.17672318 -0.08242053 -0.29584816
0.05204872 0.2507297 -0.56475323 -0.032727428 -0.061223343 -0.011835093 0.11254456 0.37302715
0.44819522 0.052903946 0.1789169 -0.006580797 -0.84835833 0.11103928 -0.00905722 -0.009654062
0.0075730304 -0.25878197 -0.5228311 -0.649124 0.17121054 -0.14722653 -0.07816936 -0.11458914
0.20950519 -0.29548582 0.072323084 0.31820902 -0.003279562 -0.08904584 -0.23984295 -0.20178907
-0.19661011 -0.031366266 -0.031288616 -0.040068183 0.02811755 0.10269784 -0.96244115 0.046479568
0.040709432 0.08025592 0.46781614 -0.13452101 -0.0991906 -0.44054037 -0.33778143 -0.30951
-0.30522823 0.013371896 -0.3767419 0.15659998 0.5103351 0.16655743 -0.09499626 -0.5058067
0.111484006 -0.3877377 -0.4898844 -0.12660193 -0.3778107 -0.35401285 0.2656626 0.26712152
-0.113408595 0.49784768 0.21155433 -0.16723336 0.20657031 0.13491578 -0.0059936265 0.074027136
-0.21294767 -0.11320199 0.16869605 -0.2155611 -0.16530283 0.47889 0.10488914 -0.0026790493
00000000: ae44 9d3e 52b3 4bbd 8f45 f0bd 125a c83e
00000010: 07f7 013e 2cbe 183e 08fa b5bc 0495 e4bd
00000020: 4395 8c3d 614e 3cbd aafa 47be 29cf 23be
00000030: 457f 8a3c 9823 4fbe 555e b7be 9390 703e
00000040: de46 d5bc 58b8 77be cffc b63e 7719 543d
00000050: efc9 90be 3209 bc3e 48b0 923e 6232 0f3d
00000060: 477d dcbd 8179 943e c86f 823e bcc7 0dbe
00000070: 826e ccbe 22c6 abbe c447 bd3e 3df1 463d
00000080: 6496 f7bd 07c7 a63e 8ec4 913e 7b28 243d
00000090: 19f8 b93d f742 99bd 1724 23bc bf6c 74be
000000a0: e11f d7be 92b4 8e3c 13a3 0c3d 9117 d6bd
000000b0: b792 393c d096 4a3e 0b8c 3f3e 06ae 463e
000000c0: 5f1b ce3e 6105 993e 2728 923e f587 283e
000000d0: 24f6 bc3d 6608 b13c 7e99 20be 7ed8 bcbd
000000e0: 1685 00be 9933 7dbe c44b 83be 73ce 4dbe
000000f0: d28f 20be ecf6 34be 18cc a8bd 6979 97be
00000100: 0a31 553d a55f 803e ab93 10bf 320d 06bd
00000110: 54c5 7abd fae7 41bc c37d e63d 6afd be3e
00000120: d879 e53e cfb1 583d fe35 373e baa3 d7bb
00000130: 032e 59bf 9068 e33d bc64 14bc 122c 1ebc
00000140: 2f27 f83b 127f 84be 42d8 05bf fe2c 26bf
00000150: d151 2f3e 8dc2 16be 4217 a0bd b6ad eabd
00000160: 8788 563e eb49 97be 201e 943d 4bec a23e
00000170: eced 56bb aa5d b6bd 6499 75be cba1 4ebe
00000180: 2954 49be ea79 00bd 7e28 00bd 891e 24bd
00000190: c756 e63c 3f53 d23d 8b62 76bf 5c61 3e3d
000001a0: efbe 263d 375d a43d 9985 ef3e e0bf 09be
000001b0: 7124 cbbd 828e e1be b0f1 acbe 1878 9ebe
000001c0: e046 9cbe cc15 5b3c 50e4 c0be bf5b 203e
000001d0: 52a5 023f 088e 2a3e 668d c2bd 8c7c 01bf
000001e0: ba51 e43d 8e85 c6be 21d2 fabe f0a3 01be
000001f0: 6770 c1be 2c41 b5be ee04 883e 27c4 883e
00000200: c442 e8bd e4e5 fe3e b3a1 583e 393f 2bbe
00000210: 2b87 533e 5d27 0a3e 2f66 c4bb 8a9b 973d
00000220: f40e 5abe 72d6 e7bd a8be 2c3e 0dbc 5cbe
00000230: 2545 29be 1231 f53e 1ed0 d63d fd92 2fbb

layer1.0.bn2.weight f4 [4]
1.3131663 1.9419602 3.5512497 3.405749
00000000: d515 a83f 2792 f83f ad47 6340 cbf7 5940

layer1.0.bn2.bias f4 [4]
1.3005077 2.7652373 3.4841921 3.5094185
00000000: 0977 a63f a6f9 3040 01fd 5e40 509a 6040

layer1.0.bn2.running_mean f4 [4]
3.5953104 -3.0073137 -4.10612 -3.8099852
00000000: 9119 6640 d477 40c0 5665 83c0 ccd6 73c0

layer1.0.bn2.running_var f4 [4]
17.517887 23.940243 21.604694 33.581722
00000000: a224 8c41 9e85 bf41 6ad6 ac41 af53 0642

layer1.1.conv1.weight f4 [4, 4, 3, 3]
-0.22465697 -0.3542258 -0.29254812 -0.11378045 -0.20419481 -0.12689596 -0.3270417 -0.36599803
-0.2305794 -0.31916738 0.46033776 0.4721535 -0.090170905 0.1968493 0.1477608 0.18300092
0.052030046 0.14725675 0.0884755 0.2625495 -0.49045798 0.31444868 -0.16082323 -0.2731234
0.2980672 -0.6478139 0.015429039 -0.2796005 0.27950224 -0.02451784 -0.15714352 0.39568573
-0.076428406 0.2595848 0.43457615 -0.2919945 0.033223115 0.2248666 0.12115824 -0.41516632
-0.33786505 -0.37336668 -0.15048209 -0.024990503 0.09743762 -0.070090674 -0.20176317 -0.10033175
0.043297794 -0.40290323 -0.024749964 0.10658669 -0.1196034 0.10006501 -0.18892987 0.13775605
-0.038486663 -0.40614703 -0.3862505 0.104305774 0.07680005 -0.11295647 0.22941883 0.10348327
0.07809646 -0.1455946 0.010636415 0.14662467 -0.071969174 -0.13428178 0.009916195 -0.20203115
-0.14334652 -0.09906235 -0.30690792 -0.18816751 -0.33935916 -0.568383 -0.042792737 0.04221449
-0.03988021 0.3095448 -0.41011134 -0.063205555 -0.068519585 -0.0052224854 0.24438144 -0.4932086
0.24666417 0.007603234 0.67462504 -0.98571986 -0.26321283 -1.1217049 -0.37199587 0.7783351
-0.196771 0.9112068 -0.79617655 0.20049934 -0.17366862 -0.27075753 -0.2540038 -0.3168152
0.23920831 -0.22302939 0.053176578 0.11469796 -0.36591128 -0.3071595 -0.39660168 0.5199208
0.49344876 0.29786965 -0.20040777 -0.2246442 -0.6273753 0.10794158 0.2646663 0.084960185
-0.21890117 0.16357052 -0.19243534 0.12930548 0.34950843 -0.22008908 -0.28751802 0.6690371
-0.2018161 -1.0422052 0.9039302 -1.0515635 -0.34379062 1.0757917 -0.37428203 -0.30929363
-0.290562 0.007911498 0.02046842 0.040269405 0.010619994 -0.45345727 -0.08867522 0.024953902
00000000: 7a0c 66be 165d b5be dec8 95be b905 e9bd
00000010: 7218 51be 04f1 01be 0272 a7be 1864 bbbe
00000020: 021d 6cbe e869 a3be 64b1 eb3e 1bbe f13e
00000030: 86ab b8bd dd92 493e 9b4e 173e 9864 3b3e
00000040: 751d 553d 79ca 163e a532 b53d e36c 863e
00000050: 4f1d fbbe 6bff a03e d8ae 24be d5d6 8bbe
00000060: 449c 983e 22d7 25bf 14ca 7c3c cc27 8fbe
00000070: eb1a 8f3e a3d9 c8bc 3bea 20be 5297 ca3e
00000080: 7f86 9cbd 4de8 843e c480 de3e 4e80 95be
00000090: f614 083d 6e43 663e d021 f83d ae90 d4be
000000a0: a6fc acbe eb29 bfbe fa17 1abe e2b8 ccbc
000000b0: 608d c73d b38b 8fbd 019b 4ebe bc7a cdbd
000000c0: 0759 313d 5549 cebe 70c0 cabc 1f4a da3d
000000d0: a1f2 f4bd e2ee cc3d d576 41be ec0f 0d3e
000000e0: 31a4 1dbd 81f2 cfbe a0c2 c5be 449e d53d
000000f0: 5849 9d3d b955 e7bd c5ec 6a3e 09ef d33d
00000100: 09f1 9f3d c016 15be 5c44 2e3c c724 163e
00000110: 9364 93bd 2a81 09be 8977 223c 41e1 4ebe
00000120: 6ec9 12be 34e1 cabd 0923 9dbe fcae 40be
00000130: 7cc0 adbe 8c81 11bf 7047 2fbd 1ae9 2c3d
00000140: 6e59 23bd a87c 9e3e 1dfa d1be ea71 81bd
00000150: ff53 8cbd 6221 abbb 213f 7a3e d685 fcbe
00000160: 8895 7c3e 8d24 f93b 3ab4 2c3f 2358 7cbf
00000170: d5c3 86be 0794 8fbf 3e76 bebe f840 473f
00000180: 567e 49be d944 693f 3ad2 4bbf b34f 4d3e
00000190: 30d6 31be bba0 8abe c90c 82be 9a35 a2be
000001a0: 06f3 743e d161 64be afcf 593d c4e6 ea3d
000001b0: b958 bbbe 0344 9dbe 600f cbbe 8819 053f
000001c0: 51a5 fc3e 5f82 983e b237 4dbe 2109 66be
000001d0: ab9b 20bf 7a10 dd3d 5782 873e 9bff ad3d
000001e0: a127 60be 087f 273e c50d 45be a868 043e
000001f0: c5f2 b23e 085f 61be 9035 93be 0446 2b3f
00000200: e1a8 4ebe fb66 85bf f867 673f a299 86bf
00000210: 5305 b0be 8bb3 893f e5a1 bfbe bc5b 9ebe
00000220: 8bc4 94be 3a9f 013c 63ad a73c 88f1 243d
00000230: 7cff 2d3c 8d2b e8be 5b9b b5bd 206c cc3c

layer1.1.bn1.weight f4 [4]
3.4645228 2.56759 4.7770486 5.527791
00000000: beba 5d40 6553 2440 95dd 9840 aae3 b040

layer1.1.bn1.bias f4 [4]
1.1116776 2.0789514 0.17646201 0.5800328
00000000: 744b 8e3f 8a0d 0540 75b2 343e 087d 143f

layer1.1.bn1.running_mean f4 [4]
3.0814104 -14.451961 -27.913216 -16.356028
00000000: d435 4540 3b3b 67c1 444e dfc1 25d9 82c1

layer1.1.bn1.running_var f4 [4]
305.72827 142.98894 625.9486 1331.4196
00000000: 38dd 9843 2bfd 0e43 b67c 1c44 6d6d a644

layer1.1.conv2.weight f4 [4, 4, 3, 3]
-0.10604744 -0.047970504 0.18806903 -0.31517535 -0.42444474 -0.03367895 -0.1379284 -0.42175722
-0.12742491 0.1305569 0.042207193 -0.031158356 0.08013359 0.060786016 0.034287874 0.03563558
0.029286012 0.10910864 0.2426494 0.15665227 0.2023361 0.25103933 0.1082237 0.15938462
0.13025232 0.08100518 0.060271908 -0.22360294 -0.48104244 -0.30685484 -0.5284744 -0.7474716
-0.57355964 -0.39753845 -0.56467414 -0.47306323 0.15405062 0.21688706 0.1962008 0.042379655
0.0713023 0.16726378 -0.015493075 -0.03442841 0.1973236 -0.040347185 -0.22790895 -0.04346314
-0.24268657 -0.5459489 -0.34672302 0.09891387 -0.19066611 -0.1468237 -0.25379968 -0.26006502
-0.039622184 -0.321636 -0.2545441 -0.17978105 -0.18840452 -0.17512776 -0.07973394 -0.09048969
-0.09412208 -0.04791395 -0.16659163 -0.23226371 -0.20801604 -0.14823404 -0.15163377 -0.0076998863
-0.019436877 -0.04099572 0.23833793 0.22583652 0.23661408 0.016174072 -0.029795468 0.050669696
0.12776509 0.2854608 0.01240614 0.14251857 0.034310818 -0.35612 -0.34092277 -0.15667868
-0.04342708 0.021279288 0.5478108 0.50173867 0.5024528 0.3621353 0.6880445 0.5432903
0.4553226 0.54155374 0.5147707 0.014114415 -0.07107938 -0.062628604 -0.08465618 -0.23741318
-0.1790582 -0.23549904 -0.2687137 -0.02311057 0.18960206 0.16567865 0.14872384 0.15655404
0.1389372 0.39630353 0.19505459 0.26149383 0.2935361 -0.096677564 0.0072748675 -0.055917695
-0.22862546 -0.0042222487 0.20559508 -0.22574939 0.11268475 0.5586823 -0.026635218 0.09331455
0.09702822 0.16524008 0.2816672 0.3096841 0.09740138 0.44977775 0.60317403 -0.13919483
-0.11262055 -0.03779972 -0.032444756 0.028518496 -0.059346057 0.19152842 0.3086406 0.15016025
00000000: 662f d9bd b87c 44bd 2b95 403e aa5e a1be
00000010: d250 d9be f0f2 09bd 1a3d 0dbe 90f0 d7be
00000020: ad7b 02be b5b0 053e 73e1 2c3d cf3f ffbc
00000030: 141d a43d c2fa 783d 7171 0c3d 9df6 113d
00000040: 38e9 ef3c 5a74 df3d 1679 783e 7469 203e
00000050: 3231 4f3e 3a88 803e 63a4 dd3d b935 233e
00000060: dd60 053e 0be6 a53d addf 763d 2bf8 64be
00000070: 324b f6be 141c 9dbe 194a 07bf 4c5a 3fbf
00000080: ced4 12bf 298a cbbe 7c8e 10bf 5835 f2be
00000090: 72bf 1d3e a417 5e3e dde8 483e 4a96 2d3d
000000a0: f106 923d 3247 2b3e abd6 7dbc ce04 0dbd
000000b0: 330f 4a3e 1743 25bd f760 69be 6806 32bd
000000c0: d482 78be 4fc3 0bbf ae85 b1be 5b93 ca3d
000000d0: fa3d 43be f458 16be 08f2 81be 3e27 85be
000000e0: df4a 22bd 79ad a4be 9b53 82be 8618 38be
000000f0: 1ded 40be b154 33be 8c4b a3bd a952 b9bd
00000100: 14c3 c0bd 6b41 44bd ff96 2abe 8ad6 6dbe
00000110: 2802 55be aaca 17be e245 1bbe 544f fcbb
00000120: 163a 9fbc 21eb 27bd dc0e 743e b041 673e
00000130: f64a 723e 7d7f 843c a015 f4bc 078b 4f3d
00000140: dad4 023e eb27 923e 1f43 4b3c 63f0 113e
00000150: 8089 0c3d 5c55 b6be 6e8d aebe 6070 20be
00000160: 98e0 31bd e751 ae3c 543d 0c3f f271 003f
00000170: bfa0 003f cc69 b93e af23 303f 1315 0b3f
00000180: 0b20 e93e 44a3 0a3f 03c8 033f 2640 673c
00000190: 1192 91bd 6d43 80bd 3860 adbd 711c 73be
000001a0: 085b 37be a926 71be d894 89be 6152 bdbc
000001b0: 0b27 423e aaa7 293e 104b 183e b44f 203e
000001c0: 8e45 0e3e 4ce8 ca3e 64bc 473e 85e2 853e
000001d0: 5d4a 963e e3fe c5bd 0362 ee3b f409 65bd
000001e0: cb1c 6abe ca5a 8abb 8487 523e d92a 67be
000001f0: 43c7 e63d ce05 0f3f 1a32 dabc b31b bf3d
00000200: bbb6 c63d b234 293e af36 903e ea8e 9e3e
00000210: 607a c73d 4549 e63e 9d69 1a3f 1789 0ebe
00000220: 9aa5 e6bd e1d3 1abd cbe4 04bd 9f9f e93c
00000230: da14 73bd 0720 443e 2406 9e3e 9cc3 193e

layer1.1.bn2.weight f4 [4]
3.3123696 1.8706204 4.292983 2.4417157
00000000: ddfd 5340 7d70 ef3f 1e60 8940 1245 1c40

layer1.1.bn2.bias f4 [4]
2.2947156 1.842865 1.123616 2.0751083
00000000: 9fdc 1240 00e3 eb3f a6d2 8f3f 93ce 0440

layer1.1.bn2.running_mean f4 [4]
-8.16411 -7.109536 5.2368803 7.668571
00000000: 32a0 02c1 5281 e3c0 8694 a740 ef64 f540

layer1.1.bn2.running_var f4 [4]
73.43114 25.043976 39.883774 26.460346
00000000: bedc 9242 105a c841 fc88 1f42 caae d341

layer1.2.conv1.weight f4 [4, 4, 3, 3]
0.2427912 -0.04865837 -0.12160908 -0.02552275 -0.29417703 -0.36697787 -0.105975784 -0.40723965
-0.13882418 0.21049522 -0.45038348 -0.06316607 0.35584602 -0.50995576 0.15865222 0.2966055
-0.7888095 0.28050494 0.26050365 -0.7037796 0.13942584 0.8065099 -0.8050627 0.8226984
0.5059892 -1.054422 0.44384068 -0.03462557 0.4887364 -0.2510136 -0.22034231 0.2738724
-0.20816076 -0.033813816 0.54121184 -0.34865558 -0.24703985 -0.12682693 0.045122724 0.16818827
-0.14792314 -0.08319534 -0.07723797 -0.0654866 -0.11143428 -0.7055386 -0.12607509 0.50517017
-0.46005103 0.52390856 0.07828951 0.49238908 -0.2253175 -0.07241449 -0.65973157 0.34792456
0.56668043 0.1275979 1.030586 -0.8607074 0.9898628 -0.87219757 -0.2674234 -0.38499105
-0.13293003 0.58255744 -0.18161617 0.35469282 0.017661752 0.31437033 0.16326877 -0.47200963
-0.08306584 -0.066164605 -0.044705443 -0.20598575 -0.032004233 0.027224373 -0.24664201 -0.06542033
-0.09262537 0.034033854 0.15263699 0.135037 -0.030045126 -0.049755823 0.0886921 0.030954108
-0.110243544 -0.17206506 0.12523137 0.2013035 0.35934874 -0.1137424 0.69329417 0.17334016
0.058624264 -0.15218976 -0.091583684 0.038857043 0.0005540646 -0.23072068 0.053926323 -0.08997308
-0.13623534 0.034530345 0.04155474 0.07202306 0.37303066 0.43527004 0.30348134 -0.0057416856
0.059496645 0.54033154 0.10057219 -0.015021753 0.12496516 0.17247248 0.036015827 0.11064984
0.11586305 0.12701955 -0.024122333 5.7491197e-05 0.045651536 -0.020039795 0.032191787 -0.24001996
0.2956551 0.3088017 0.108094074 -0.59128475 -0.11892866 0.1101114 -0.073012955 0.25138217
0.10945132 0.24976112 0.043531835 -0.046023462 0.11562558 0.22317356 0.07771877 0.06890724
00000000: 429e 783e 004e 47bd 2e0e f9bd 1615 d1bc
00000010: 5f9e 96be 86e4 bbbe d509 d9bd b781 d0be
00000020: ed27 0ebe 0f8c 573e aa98 e6be 365d 81bd
00000030: 7331 b63e 768c 02bf ba75 223e addc 973e
00000040: 6bef 49bf 589e 8f3e bc60 853e e62a 34bf
00000050: a6c5 0e3e 6f77 4e3f 9718 4ebf 5d9c 523f
00000060: 8288 013f 4df7 86bf 163f e33e 8bd3 0dbd
00000070: a83b fa3e db84 80be 6aa1 61be 0139 8c3e
00000080: 1828 55be 5b80 0abd dc8c 0a3f fc82 b2be
00000090: 04f8 7cbe ebde 01be 9bd2 383d 8c39 2c3e
000000a0: 2a79 17be 5262 aabd f12e 9ebd d71d 86bd
000000b0: a837 e4bd 2d9e 34bf d419 01be d552 013f
000000c0: cf8b ebbe df1e 063f 4056 a03d 6c1a fc3e
000000d0: a1b9 66be 0c4e 94bd 2be4 28bf 2b23 b23e
000000e0: f811 113f 06a9 023e 3eea 833f 5257 5cbf
000000f0: a667 7d3f 5748 5fbf b8eb 88be 8c1d c5be
00000100: cf1e 08be 7c22 153f 97f9 39be 4c9a b53e
00000110: 61af 903c 26f5 a03e ee2f 273e 3fab f1be
00000120: 6c1e aabd 4f81 87bd 0e1d 37bd eeed 52be
00000130: df16 03bd a605 df3c b98f 7cbe 18fb 85bd
00000140: 5fb2 bdbd 1567 0b3d df4c 1c3e 2447 0a3e
00000150: 3221 f6bc c3cc 4bbd 34a4 b53d 7893 fd3c
00000160: 5ec7 e1bd d331 30be a73c 003e 8122 4e3e
00000170: 8ffc b73e c7f1 e8bd ba7b 313f 1580 313e
00000180: ff1f 703d a2d7 1bbe 3a90 bbbd 9028 1f3d
00000190: a53e 113a 0b42 6cbe d9e1 5c3d ce43 b8bd
000001a0: 4781 0bbe b16f 0d3d 4e35 2a3d d380 933d
000001b0: e0fd be3e b7db de3e e861 9b3e c024 bcbb
000001c0: c1b2 733d 2b53 0a3f cbf8 cd3d cc1d 76bc
000001d0: bced ff3d a09c 303e 5585 133d 629c e23d
000001e0: 9b49 ed3d 6a11 023e 339c c5bc b422 7138
000001f0: 1bfd 3a3d 7f2a a4bc 89db 033d cbc7 75be
00000200: 1b60 973e 421b 9e3e 6d60 dd3d 705e 17bf
00000210: df90 f3bd 1682 e13d d187 95bd 2ab5 803e
00000220: 0328 e03d 61c1 7f3e 704e 323d 1983 3cbd
00000230: 1bcd ec3d 9c87 643e 052b 9f3d 3d1f 8d3d

layer1.2.bn1.weight f4 [4]
5.0236273 4.651785 2.4023817 2.3560684
00000000: 8ec1 a040 6cdb 9440 9fc0 1940 d3c9 1640

layer1.2.bn1.bias f4 [4]
-0.30815905 -0.11209378 1.5715433 1.641373
00000000: 06c7 9dbe 6c91 e5bd 5528 c93f 8318 d23f

layer1.2.bn1.running_mean f4 [4]
2.2670972 8.4579935 15.983103 18.461153
00000000: 1f18 1140 f153 0741 caba 7f41 71b0 9341

layer1.2.bn1.running_var f4 [4]
1508.6888 756.2488 186.3217 195.85129
00000000: 0b96 bc44 ec0f 3d44 5b52 3a43 eed9 4343

layer1.2.conv2.weight f4 [4, 4, 3, 3]
-0.3053032 -0.5750538 -0.39524332 -0.44815123 -0.74387026 -0.5747071 -0.37102345 -0.6603215
-0.5102854 0.09557825 0.05977916 0.00015897778 0.078663595 -0.001091957 -0.025814096 0.04573275
-0.011258523 0.0003784037 -0.10553394 -0.0142182 0.14896783 -0.22988904 -0.14618345 0.17129244
-0.04862069 0.033564854 0.13680723 0.22820431 0.22351564 -0.017940909 0.32685885 0.28017506
-0.059360456 0.22039309 0.15821397 -0.05395243 -0.13209708 -0.17653506 -0.24174364 -0.14405541
-0.16756761 -0.37846288 -0.1573699 -0.30562028 -0.5532317 -0.05888151 -0.14686991 -0.11581892
-0.11873833 -0.27817863 -0.009499948 -0.094828896 -0.08410456 0.06070389 0.20725293 0.068868674
-0.077122636 0.42632613 0.17384453 0.074028015 0.2659119 0.14083879 -0.07688415 0.14199069
0.26359746 0.1641424 -0.15163352 0.054559506 0.275338 -0.2620037 -0.08791398 0.07809692
-0.25278777 -0.13979575 -0.11433626 0.025919098 -0.05480571 -0.4510035 -0.13737582 -0.019322867
-0.5555707 0.6147316 0.58817166 0.14296708 0.90789616 0.3064931 0.46819058 0.3174025
0.3437515 0.56079435 -0.092964716 -0.22619388 -0.099628985 0.2340023 -0.13974571 0.30658063
-0.02192791 0.21761619 0.26139566 0.17772444 0.24935672 -0.27078533 -0.124217875 -0.07656959
0.17319453 -0.09013277 -0.26235318 0.011875105 0.09102178 0.08241028 0.041627157 -0.03628154
-0.040131867 -0.20474592 -0.11629193 -0.15234356 -0.39872608 -0.30217308 -0.06223809 0.12312619
-0.43619868 -0.35046238 -0.3576508 -0.14254896 -0.56185865 -0.56345373 0.07194581 0.048358306
-0.1566632 0.116874404 0.055708572 -0.15925632 0.26691794 0.30603385 0.005840318 -0.1463257
-0.050424114 0.103718355 -0.24353512 -0.19706273 0.0816453 -0.21961705 -0.23228428 0.04614074
00000000: b350 9cbe ba36 13bf 555d cabe 1474 e5be
00000010: 486e 3ebf 0120 13bf c9f6 bdbe d40a 29bf
00000020: 10a2 02bf 88be c33d feda 743d 46b3 2639
00000030: 611a a13d ff1f 8fba 1578 d3bc 4452 3b3d
00000040: ab75 38bc 7c64 c639 2e22 d8bd 74f3 68bc
00000050: 068b 183e 0868 6bbe 1db1 15be 4967 2f3e
00000060: 7d26 47bd 4d7b 093d 3217 0c3e 64ae 693e
00000070: 49e1 643e d0f8 92bc 0b5a a73e 1b73 8f3e
00000080: f323 73bd baae 613e d802 223e 39fd 5cbd
00000090: 7544 07be 9bc5 34be a58b 77be 4383 13be
000000a0: d896 2bbe e3c5 c1be 9325 21be 437a 9cbe
000000b0: 98a0 0dbf bd2d 71bd 1165 16be 7832 edbd
000000c0: 152d f3bd 6e6d 8ebe aba5 1bbc a735 c2bd
000000d0: 033f acbd a4a4 783d 1d3a 543e 050b 8d3d
000000e0: 79f2 9dbd 6b47 da3e 4d04 323e 009c 973d
000000f0: 9b25 883e 0b38 103e 7075 9dbd 0266 113e
00000100: 3ff6 863e f214 283e d145 1bbe ca79 5f3d
00000110: 1af9 8c3e 5925 86be 3f0c b4bd 47f1 9f3d
00000120: 666d 81be 9e26 0fbe 2129 eabd 4a54 d43c
00000130: f47b 60bd eee9 e6be 3fac 0cbe fd4a 9ebc
00000140: e239 0ebf 0d5f 1d3f 6b92 163f f665 123e
00000150: e26b 683f aaec 9c3e adb6 ef3e 9582 a23e
00000160: 3200 b03e 3890 0f3f 4964 bebd 5e9f 67be
00000170: 480a ccbd 4d9e 6f3e 8019 0fbe 23f8 9c3e
00000180: 29a2 b3bc c7d6 5e3e a7d5 853e 65fd 353e
00000190: 5e57 7f3e 60a4 8abe f165 febd 84d0 9cbd
000001a0: e859 313e 8897 b8bd 2853 86be cd8f 423c
000001b0: a169 ba3d b9c6 a83d 3d81 2a3d f49b 14bd
000001c0: 5061 24bd eaa8 51be 772a eebd f3ff 1bbe
000001d0: d325 ccbe 6eb6 9abe 5eed 7ebd 9529 fc3d
000001e0: 6f55 dfbe ce6f b3be 011e b7be 5bf8 11be
000001f0: f8d5 0fbf 813e 10bf 5358 933d 5c13 463d
00000200: 516c 20be d95b ef3d ac2e 643d 1714 23be
00000210: 78a9 883e 78b0 9c3e 2360 bf3b 68d6 15be
00000220: 8489 4ebd 4a6a d43d 4561 79be d0ca 49be
00000230: a735 a73d 4be3 60be eedb 6dbe 13fe 3c3d

layer1.2.bn2.weight f4 [4]
3.375958 1.6713398 4.9083467 -2.263366
00000000: b20f 5840 76ee d53f 2d11 9d40 fdda 10c0

layer1.2.bn2.bias f4 [4]
3.220042 0.9165128 0.32957324 1.6609433
00000000: 2b15 4e40 95a0 6a3f d3bd a83e ca99 d43f

layer1.2.bn2.running_mean f4 [4]
-4.106303 -1.5974221 4.066231 -5.2564626
00000000: d666 83c0 5478 ccbf 901e 8240 f134 a8c0

layer1.2.bn2.running_var f4 [4]
50.40081 24.379803 49.295723 25.671238
00000000: 6e9a 4942 d609 c341 d22e 4542 b25e cd41

layer2.0.conv1.weight f4 [8, 4, 3, 3]
0.16431072 0.11916681 -0.057092294 -0.09489009 -0.010684261 -0.030468881 -0.0023189555 0.13119507
0.101033404 -0.062304337 -0.20939097 -0.15460351 0.11659247 0.2419746 0.041576877 -0.019253105
0.08138507 0.11708736 -0.23085335 -0.2566389 -0.5303205 -0.17955755 1.2152939 -0.093049005
-0.6565221 -0.28522664 -0.25258023 -0.0071830857 0.019410301 -0.068556264 0.08112673 -0.18905205
-0.41845098 0.1396417 0.22394301 0.074827716 0.082457595 0.06590879 -0.09317015 0.18301705
-0.037201528 -0.1956433 0.25054955 -0.07635079 -0.30559137 -0.11151942 -0.14752565 0.2657663
-0.51307255 -0.14357631 0.6413635 -0.52413654 -0.19188827 0.49333075 -0.023179337 -0.12832241
0.3544658 -0.12849075 -0.16421296 0.5107221 -0.07319231 0.074928425 0.47154397 0.52312875
0.05013329 -0.62291515 0.49345106 0.12252215 -0.5822911 0.095740706 -0.17953444 -0.40645492
-0.038738593 -0.06615233 0.0047212844 -0.062270876 -0.04067405 -0.02703327 -0.1054964 -0.07294145
0.010947893 -0.14692341 -0.35468027 -0.48431233 -0.2415639 -0.37913832 -0.45341316 -0.27832687
-0.28099453 -0.19870208 0.1897885 0.1650152 0.076598324 0.27036914 -0.05035954 0.19292928
0.2595491 0.247416 0.093864515 -0.2462894 -0.2696761 -0.26633322 -0.21484198 0.0591116
-0.23059751 -0.08189063 -0.064041205 -0.17219116 0.050240736 -0.28178304 -0.23531206 0.22046384
0.078915715 -0.25956538 -0.3158036 0.1606788 0.18959703 -0.22098602 0.16398133 0.15654346
0.0031605125 -0.33660904 0.09052507 0.32202366 -0.01544175 -0.26583952 -0.48555908 0.6660008
0.21764138 -0.5127073 -0.7634559 0.7059746 0.9786195 -0.63810825 -0.3086021 0.49837995
-0.34914684 -0.22554137 0.1134895 0.47220978 -0.31216154 -0.6487236 0.1388208 0.28296256
-0.29281387 -0.2079067 -0.09706237 0.2543645 0.24431825 0.15923257 0.12057335 -0.024786502
-0.1257463 0.40902275 0.44524708 0.32508895 -0.34810323 -0.44685763 -0.28949594 -0.17426707
-0.025614318 0.016326234 0.48128003 0.68470085 0.40525398 -0.65934277 -1.0609646 -0.6986435
0.1699622 0.50877064 0.50494957 0.060898907 0.27674794 0.30768245 0.047309026 0.06954971
-0.0695719 -0.30304065 -0.13122506 -0.18314601 -0.19375628 -0.11787085 -0.23167866 0.016213
0.028240087 -0.192313 0.12520933 -0.08788637 -0.296733 0.14994407 0.056171 -0.40491548
-0.01471273 0.2511445 -0.5361332 -0.14580101 0.102149606 -0.6108221 0.19267033 0.020703044
-0.2758612 0.030719988 0.28135446 -0.4670864 0.03341563 0.34590775 -0.395613 -0.33470103
-0.0014563734 0.448483 -0.25273597 0.033625063 0.7412396 -0.39932227 -0.008439364 0.5462962
-0.10901938 -0.054846134 -0.10639139 -0.2599959 -0.14550266 -0.11243932 0.25405204 0.22330415
0.18711962 0.3128351 0.05016455 0.065208845 0.37105012 0.3973199 0.2676082 -0.6875176
-0.5853953 -0.252392 0.039154 -0.04828058 0.16156107 0.41522482 0.60545945 0.60673344
-0.58331776 -0.9751909 -0.6268546 -0.12799688 -0.22030164 -0.10435615 0.18744703 0.29261225
0.42269382 -0.08135433 -0.13930213 0.2552931 0.21798258 0.1343523 -0.25946987 -0.31055528
00000000: 1241 283e ba0d f43d 9cd9 69bd bc55 c2bd
00000010: 0a0d 2fbc e099 f9bc 9ef9 17bb 0058 063e
00000020: 9aea ce3d d532 7fbd 966a 56be 6250 1ebe
00000030: 08c8 ee3d 31c8 773e 844c 2a3d b0b8 9dbc
00000040: 37ad a63d 7fcb ef3d d264 6cbe 2d66 83be
00000050: 16c3 07bf efdd 37be c08e 9b3f 7a90 bebd
00000060: d511 28bf 3a09 92be 3252 81be 1760 ebbb
00000070: 5a02 9f3c 3a67 8cbd c525 a63d dc96 41be
00000080: 353f d6be 3cfe 0e3e 5151 653e 463f 993d
00000090: 87df a83d 30fb 863d fecf bebd d268 3b3e
000000a0: a160 18bd b856 48be 0848 803e ce5d 9cbd
000000b0: 7976 9cbe 4b64 e4bd f710 17be 8512 883e
000000c0: b958 03bf ab05 13be 6630 243f d02d 06bf
000000d0: 5c7e 44be d995 fc3e 98e2 bdbc f366 03be
000000e0: 8b7c b53e 1493 03be 7127 28be afbe 023f
000000f0: dae5 95bd 1374 993d 366e f13e c4eb 053f
00000100: 9158 4d3d 5e77 1fbf 9ea5 fc3e e5ec fa3d
00000110: 0811 15bf b413 c43d e0d7 37be dc1a d0be
00000120: 5cac 1ebd df7a 87bd 01b5 9a3b bf0f 7fbd
00000130: d599 26bd e074 ddbc 7f0e d8bd 5462 95bd
00000140: cb5e 333c 1773 16be a798 b5be c9f7 f7be
00000150: 875c 77be 6b1e c2be c525 e8be dc80 8ebe
00000160: 84de 8fbe 8f78 4bbe eb57 423e bff9 283e
00000170: 95df 9c3d d36d 8a3e ce45 4ebd 418f 453e
00000180: 9fe3 843e 9f5a 7d3e 0a3c c03d 4a33 7cbe
00000190: fc12 8abe d45c 88be 89ff 5bbe 011f 723d
000001a0: c121 6cbe 46b6 a7bd 0928 83bd e152 30be
000001b0: 3bc9 4d3d de45 90be a5f5 70be 46c1 613e
000001c0: 909e a13d c1e5 84be 02b1 a1be fc88 243e
000001d0: b925 423e 294a 62be b9ea 273e ee4c 203e
000001e0: 9a20 4f3b 0558 acbe 3565 b93d 49e0 a43e
000001f0: 65ff 7cbc 1e1c 88be 339b f8be 077f 2a3f
00000200: 62dd 5e3e c940 03bf d971 43bf c0ba 343f
00000210: cf86 7a3f 105b 23bf 1801 9ebe a82b ff3e
00000220: 60c3 b2be 51f4 66be 2f6d e83d 7bc5 f13e
00000230: a3d3 9fbe c012 26bf 0a27 0e3e 78e0 903e
00000240: b3eb 95be 7ee5 54be a3c8 c6bd 103c 823e
00000250: 902e 7a3e dd0d 233e 29ef f63d 100d cbbc
00000260: a3c3 00be 6e6b d13e 6df7 e33e 0f72 a63e
00000270: 963a b2be 86ca e4be d038 94be 1173 32be
00000280: 1ed5 d1bc 98be 853c 566a f63e 8e48 2f3f
00000290: 737d cf3e b0ca 28bf b0cd 87bf 4dda 32bf
000002a0: 920a 2e3e cb3e 023f 6044 013f 2271 793d
000002b0: e8b1 8d3e 8e88 9d3e 1cc7 413d 1470 8e3d
000002c0: b67b 8ebd 2528 9bbe dd5f 06be a18a 3bbe
000002d0: 0c68 46be 4666 f1bd 2c3d 6dbe 20d1 843c
000002e0: c157 e73c b3ed 44be e036 003e c5fd b3bd
000002f0: 63ed 97be f08a 193e 9013 663d 1551 cfbe
00000300: aa0d 71bc 0396 803e 0740 09bf dc4c 15be
00000310: d033 d13d d65e 1cbf 5f4b 453e 6e99 a93c
00000320: ae3d 8dbe 7ca8 fb3c b10d 903e f325 efbe
00000330: d4de 083d d21a b13e ca8d cabe ef5d abbe
00000340: c8e3 beba 909f e53e 9c66 81be 6fba 093d
00000350: e1c1 3d3f f873 ccbe 4245 0abc 11da 0b3f
00000360: 8d45 dfbd 57a6 60bd bbe3 d9bd 2f1e 85be
00000370: a6fe 14be 9646 e6bd 1c13 823e d8a9 643e
00000380: 499c 3f3e ec2b a03e 5879 4d3d 378c 853d
00000390: 48fa bd3e 846d cb3e f103 893e 2701 30bf
000003a0: 77dc 15bf 8639 81be f25f 203d dcc1 45bd
000003b0: 4470 253e 5998 d43e 64ff 1a3f e252 1b3f
000003c0: 5054 15bf 1ca6 79bf 8b79 20bf 9d11 03be
000003d0: c196 61be adb8 d5bd 1df2 3f3e 46d1 953e
000003e0: 536b d83e 199d a6bd 38a5 0ebe c7b5 823e
000003f0: d336 5f3e a693 093e 3cd9 84be 1a01 9fbe

layer2.0.bn1.weight f4 [8]
3.499442 4.1989937 2.9586291 4.91539 4.717545 3.9668832 4.6623936 5.1843567
00000000: dcf6 5f40 285e 8640 2e5a 3d40 e04a 9d40
00000010: 21f6 9640 6ae1 7d40 5432 9540 40e6 a540

layer2.0.bn1.bias f4 [8]
1.9045856 0.30473474 1.1722575 0.103682846 -0.15577267 0.84698224 0.17174554 -0.11904979
00000000: 76c9 f33f 3106 9c3e 890c 963f ac57 d43d
00000010: df82 1fbe d4d3 583f 10de 2f3e 60d0 f3bd

layer2.0.bn1.running_mean f4 [8]
-18.982355 4.345357 -22.772966 -6.0537057 6.07017 -9.20205 -0.7977565 -6.6435323
00000000: dddb 97c1 2a0d 8b40 092f b6c1 f5b7 c1c0
00000010: d53e c240 993b 13c1 c539 4cbf d197 d4c0

layer2.0.bn1.running_var f4 [8]
482.96045 810.8645 479.20364 817.7424 1011.80444 755.50165 987.7092 889.0289
00000000: f07a f143 54b7 4a44 119a ef43 836f 4c44
00000010: 7cf3 7c44 1be0 3c44 64ed 7644 d941 5e44

layer2.0.conv2.weight f4 [8, 8, 3, 3]
-0.038971 -0.0038952066 -0.1327616 -0.01322136 -0.0077057686 -0.13002054 0.15622622 0.064116865
-0.19312972 -0.15191154 -0.26904005 -0.30718184 0.016935483 -0.20570362 -0.29587746 0.24910383
0.05764711 -0.15543991 0.14475726 0.08738931 0.070824586 -0.054761995 -0.33878908 -0.3202385
0.05633826 -0.09837337 -0.07475341 -0.09294556 -0.09398982 -0.13999477 -0.066002406 -0.26238954
-0.27453646 0.20082857 0.023344489 -0.08712926 0.20606492 0.21530277 0.20056145 0.06146435
-0.08801729 -0.13184229 -0.34438246 -0.36268824 -0.3679269 0.06511089 0.054459106 -0.06828067
0.023949156 -0.1999088 -0.22551133 -0.056595482 -0.17104806 -0.14109871 0.16519567 0.14257325
0.23740691 -0.3303227 -0.33489707 -0.26412642 -0.26563668 -0.3822568 -0.40246853 -0.18841146
-0.15448615 -0.054115728 -0.084240995 -0.20669402 -0.15445627 0.2306918 0.025396641 -0.105689086
-0.057495613 -0.05884446 0.008432268 -0.049168188 -0.20260572 0.03084803 -0.094591744 -0.21505152
0.0043254825 0.17887563 0.520391 0.227972 0.44729078 0.70532006 0.24981564 0.2745304
0.25383505 0.11737938 0.12991428 0.07808192 0.030287469 0.083744876 -0.1887058 -0.42065063
-0.036386 -0.39676902 -0.41133532 -0.14880535 -0.2244312 -0.086822316 -0.25243378 -0.37439585
-0.15697506 -0.16229019 -0.24896516 -0.16002342 0.052196182 0.027991422 0.014818343 0.07552445
-0.345679 -0.38769817 -0.21774302 -0.49053985 -0.3563708 0.0455687 -0.108605005 -0.09385094
-0.05757751 0.13473879 0.15163602 0.10917274 0.34089598 0.18397164 0.12364718 -0.20897117
-0.21314749 -0.105109856 -0.4616584 -0.3551296 -0.21007504 -0.2689578 -0.18195629 -0.17787421
-0.108431004 -0.009264846 -0.30494425 -0.38293415 -0.16177775 -0.2567757 -0.3774603 -0.1338371
0.16907412 0.04094351 0.1972698 0.16684133 0.00050138944 0.10375605 0.040934622 0.021235237
0.046542518 -0.17166051 0.10230889 0.15809418 -0.27558002 -0.07819438 -0.09109178 -0.05055908
-0.16991523 -0.027202709 -0.28164795 0.06796115 0.067449056 -0.183895 -0.036444206 -0.26394865
0.19205546 0.08748494 -0.39526606 0.2385438 0.30022484 0.042834096 0.059946526 0.1286245
0.21435949 -0.08823181 0.2734322 0.44336358 0.1822656 0.09251272 0.081459224 0.09719883
0.012384799 -0.050116073 -0.17574805 -0.34932938 -0.0856159 -0.008314841 -0.2489155 -0.45201713
-0.15059917 -0.49160832 -0.5218229 -0.1770625 -0.28257486 -0.18608552 0.26214486 0.20831347
0.004602661 -0.13772167 0.112031154 0.2877689 -0.22345336 -0.20193285 0.025531584 0.23495775
0.3898329 0.020116333 0.21656536 0.14956813 0.24372242 0.02859948 0.43677595 0.4029295
0.0151298605 -0.026031442 -0.008182473 -0.17790373 -0.29082128 -0.09002734 -0.059460923 -0.15915485
-0.20844682 0.15626113 0.16000529 -0.30680373 -0.011626123 0.1433524 -0.25703466 -0.09618288
0.07135075 0.07271694 0.2042493 -0.08448564 -0.21826667 -0.05584871 -0.07857293 -0.15608814
-0.30830124 -0.4858119 -0.097622775 0.15018427 0.2903636 0.34219182 -0.04813161 0.27761605
0.102567166 0.11694904 0.08614586 0.26289842 -0.07156553 -0.027564533 -0.21092013 -0.012274942
00000000: 0ea0 1fbd b946 7fbb a8f2 07be 679e 58bc
00000010: ac80 fcbb 1b24 05be c4f9 1f3e b44f 833d
00000020: ccc3 45be b38e 1bbe 9ebf 89be f046 9dbe
00000030: 48bc 8a3c f8a3 52be 407d 97be 1315 7f3e
00000040: 601f 6c3d a42b 1fbe 3f3b 143e 2bf9 b23d
00000050: 7b0c 913d 1d4e 60bd c375 adbe 4df6 a3be
00000060: f3c2 663d fa77 c9bd 5118 99bd 3e5a bebd
00000070: bc7d c0bd ca5a 0fbe 452c 87bd ec57 86be
00000080: 0b90 8cbe 01a6 4d3e f13c bf3c d370 b2bd
00000090: af02 533e 5478 5c3e fb5f 4d3e 0bc2 7b3d
000000a0: 6942 b4bd aa01 07be e652 b0be 46b2 b9be
000000b0: ea60 bcbe dc58 853d 8310 5f3d bcd6 8bbd
000000c0: 0531 c43c e4b4 4cbe 71ec 66be aad0 67bd
000000d0: 3927 2fbe 2e7c 10be 0e29 293e b9fe 113e
000000e0: cc1a 733e 0f20 a9be a177 abbe 943b 87be
000000f0: 8801 88be 2ab7 c3be 5b10 cebe efee 40be
00000100: 9e31 1ebe 74a8 5dbd 8b86 acbd 99a7 53be
00000110: c929 1ebe 793a 6c3e 9e0c d03c 8573 d8bd
00000120: 8580 6bbd e306 71bd 7f27 0a3c 9564 49bd
00000130: e077 4fbe 02b5 fc3c 51b9 c1bd 7736 5cbe
00000140: c7bc 8d3b 2c2b 373e 5838 053f 7e71 693e
00000150: 4c03 e53e db8f 343f accf 7f3e 408f 8c3e
00000160: abf6 813e 9a64 f03d 4008 053e 6ae9 9f3d
00000170: 6d1d f83c 6f82 ab3d 183c 41be 855f d7be
00000180: 7d09 15bd 4f25 cbbe 8b9a d2be 6e60 18be
00000190: 4bd1 65be e6cf b1bd 003f 81be d0b0 bfbe
000001a0: 12be 20be 662f 26be b9f0 7ebe 2edd 23be
000001b0: aacb 553d 444e e53c a3c8 723c 90ac 9a3d
000001c0: d6fc b0be 6080 c6be 07f8 5ebe 0a28 fbbe
000001d0: 3c76 b6be 3fa6 3a3d 4d6c debd ec34 c0bd
000001e0: 65d6 6bbd f7f8 093e 7946 1b3e f595 df3d
000001f0: eb89 ae3e 1063 3c3e bc3a fd3d 8afc 55be
00000200: 5643 5abe d643 d7bd 7d5e ecbe 8cd3 b5be
00000210: e91d 57be d6b4 89be c052 3abe a824 36be
00000220: 1311 debd 95cb 17bc a721 9cbe f20f c4be
00000230: 11a9 25be 1b78 83be 7a42 c1be 980c 09be
00000240: c421 2d3e 62b4 273d 1801 4a3e 74d8 2a3e
00000250: ad6f 033a 0d7e d43d 10ab 273d 85f5 ad3c
00000260: 5ea3 3e3d c6c7 2fbe 5387 d13d 71e3 213e
00000270: d318 8dbe 6024 a0bd 548e babd 0a17 4fbd
00000280: 42fe 2dbe 37d8 debc 2934 90be 372f 8b3d
00000290: bb22 8a3d f94e 3cbe 8546 15bd 4724 87be
000002a0: 30aa 443e 4e2b b33d 5060 cabe d344 743e
000002b0: 12b7 993e ce72 2f3d 7d8a 753d 24b6 033e
000002c0: 0e81 5b3e e1b2 b4bd 4eff 8b3e 8d00 e33e
000002d0: d5a3 3a3e 4f77 bd3d 18d4 a63d 2e10 c73d
000002e0: 9de9 4a3c 8346 4dbd 4cf7 33be 4ddb b2be
000002f0: 6457 afbd f93a 08bc b4e3 7ebe ca6e e7be
00000300: ab36 1abe 16b4 fbbe 3096 05bf df4f 35be
00000310: a7ad 90be 348d 3ebe da37 863e 2050 553e
00000320: ebd1 963b e906 0dbe 9770 e53d 7256 933e
00000330: f5d0 64be 7cc7 4ebe 9d27 d13c c498 703e
00000340: 2e98 c73e 02cb a43c 4fc3 5d3e 6328 193e
00000350: 5f92 793e 7549 ea3c 19a1 df3e c74c ce3e
00000360: 3ce3 773c e43f d5bc c70f 06bc 652c 36be
00000370: 87e6 94be 4160 b8bd 4c8d 73bd 7df9 22be
00000380: 1573 55be eb02 203e 6dd8 233e 6115 9dbe
00000390: 7f7b 3ebc f9ca 123e 0c9a 83be 88fb c4bd
000003a0: 5820 923d 9eec 943d ba26 513e cf06 adbd
000003b0: 4c81 5fbe 9ec1 64bd d8ea a0bd 92d5 1fbe
000003c0: a9d9 9dbe 56bc f8be 73ee c7bd e8c9 193e
000003d0: 8aaa 943e c433 af3e a725 45bd b123 8e3e
000003e0: bc0e d23d fa82 ef3d 3e6d b03d 9f9a 863e
000003f0: f390 92bd 04cf e1bc 72fb 57be d71c 49bc

layer2.0.bn2.weight f4 [8]
2.1235123 2.6475616 1.8074857 1.8223972 4.2666206 2.2860992 3.50224 3.260881
00000000: a0e7 0740 a671 2940 b15b e73f 5044 e93f
00000010: 2888 8840 734f 1240 b324 6040 46b2 5040

layer2.0.bn2.bias f4 [8]
1.2841154 2.729433 0.9623806 0.28071314 -1.1460727 0.6350083 3.1939626 5.316501
00000000: e55d a43f 08af 2e40 935e 763f a2b9 8f3e
00000010: 83b2 92bf e78f 223f e269 4c40 c720 aa40

layer2.0.bn2.running_mean f4 [8]
-9.733251 -8.555346 1.4292046 -2.335699 -2.821223 -1.5441339 7.0899644 -15.787652
00000000: 65bb 1bc1 b2e2 08c1 2df0 b63f 187c 15c0
00000010: eb8e 34c0 2ea6 c5bf fde0 e240 399a 7cc1

layer2.0.bn2.running_var f4 [8]
35.5272 48.61056 35.195354 27.291433 59.23378 31.915924 78.62291 69.01301
00000000: da1b 0e42 3771 4242 0bc8 0c42 db54 da41
00000010: 64ef 6c42 d053 ff41 ee3e 9d42 a906 8a42

layer2.1.conv1.weight f4 [8, 8, 3, 3]
0.0015078243 0.00034424724 -0.0012160564 -0.033646442 -0.03248036 -0.024322664 -0.0084989555 -0.007591297
-0.0077125616 0.0796132 0.079479665 -0.2952199 0.08714125 -0.15264034 -0.20784728 -0.1234588
-0.0883124 0.23230119 0.31244367 -0.050072573 0.031087266 -0.16713086 -0.2550845 0.15999138
-0.005639165 0.16622911 0.27446663 -0.21653672 0.22616501 0.323265 0.34312415 0.45573467
-0.56554234 0.13701205 -0.6014388 -0.31398022 -0.22272721 0.20998706 0.03986379 0.16925883
0.27733815 -0.375614 -0.23729129 -0.12809926 0.45623353 -0.7110037 -0.07006308 0.66135895
0.14270924 1.1916065 -0.2609376 0.40687025 -0.13209805 -0.30027914 0.15101805 0.069260195
-0.11897667 -0.110551834 -0.09830642 0.09292897 0.43688414 0.16476396 -0.23187876 0.0180895
0.053041972 0.119267814 0.18752426 -0.056443956 -0.1798401 -0.06471577 -0.049130715 0.3505607
0.00014519249 0.0007906298 -0.0021358384 -0.00031704863 -0.0004809919 -0.0035906644 0.05852274 0.058803223
0.055974234 0.09860502 0.10662444 -0.14404249 -0.012229864 0.15912044 0.034680746 -0.0975713
0.17207895 0.16474706 -0.12676679 -0.1990202 0.03647896 -0.028649935 -0.1706726 0.061354518
0.11539766 -0.14401835 -0.13815056 -0.35981572 0.20643823 -0.036453873 -0.3300151 0.55176294
-0.31261092 -0.19133486 0.22231828 -0.2548084 0.008944807 0.26962247 -0.11354134 -0.29675308
0.4266058 -0.39553162 -0.07481376 0.3911525 -0.19242077 -0.045735955 -0.4475033 0.27833375
0.4252463 -0.6861452 0.67445934 0.035545085 -0.30370408 0.1291241 -0.042358205 -0.10589577
-0.11780778 0.08174223 -0.14894317 -0.03654478 0.15346506 -0.13858956 0.030849025 0.07236732
-0.029768867 -0.23030007 -0.07449615 -0.103870414 -0.10302911 0.034507602 -0.03118992 0.026684852
-0.001624462 -0.00024202431 -7.213431e-05 0.033174228 0.035869762 0.03940455 0.004404031 -7.335946e-05
0.00010039335 -0.026863918 -0.00047808196 0.04076485 0.0138348015 0.002331539 0.08616828 -0.1418646
-0.082823396 0.035578948 -0.043584563 0.19682518 0.27794814 0.08551143 0.27250898 0.3340946
-0.26904434 0.15523897 0.12432453 0.12121461 0.18996666 0.2568166 0.106833 0.1853171
0.18921468 -0.446713 -0.34863406 -0.19657579 -0.05958479 0.55232793 0.037439685 -0.08338873
0.22651671 0.06583226 -0.17475022 0.4004659 -0.12800592 0.10367873 0.16801988 0.0438209
-0.13736196 -0.28806844 -0.20189951 0.08012203 -0.028581368 -0.20922409 -0.18899305 -0.1174509
-0.047380127 0.18516113 0.34219494 0.4459776 -0.1950582 0.05032827 0.24405237 -0.0018720764
-0.010987249 0.12893876 0.09405483 0.22697939 0.256559 -0.24859598 -0.09827838 -0.12109467
0.00066907273 0.00025018642 -0.00089012546 -0.0036187782 -0.000913657 -0.0016584976 0.037490044 0.029201722
0.026928604 0.06509032 0.07343624 0.12450502 -0.001842034 -0.037365112 0.020858547 -0.08044007
-0.046891853 0.022023778 -0.026369173 -0.15959114 -0.33344895 -0.05971829 -0.1476846 -0.06237039
0.17545845 0.0054851095 -0.033784967 0.014338063 0.06307504 0.07437973 -0.010311686 0.15677088
-0.12950094 -0.15934329 0.08444901 0.10205883 -0.17238744 0.121189974 0.13967644 -0.25168407
00000000: 30a2 c53a 157c b439 1564 9fba dad0 09bd
00000010: 200a 05bd 5340 c7bc 343f 0bbc 6ac0 f8bb
00000020: a8b9 fcbb 3f0c a33d 3cc6 a23d 1027 97be
00000030: 1d77 b23d c04d 1cbe ebd5 54be f8d7 fcbd
00000040: 22dd b4bd 5de0 6d3e 9ef8 9f3e e618 4dbd
00000050: b9aa fe3c 5a24 2bbe 709a 82be c8d4 233e
00000060: bfc8 b8bb f737 2a3e e486 8c3e cdbb 5dbe
00000070: cd97 673e fd82 a53e f8ad af3e 0e56 e93e
00000080: 62c7 10bf e34c 0c3e e5f7 19bf 04c2 a0be
00000090: 9a12 64be d906 573e 3748 233d 3052 2d3e
000000a0: 44ff 8d3e 7a50 c0be 7dfc 72be 742c 03be
000000b0: 7197 e93e 5704 36bf 3b7d 8fbd d24e 293f
000000c0: 5f22 123e 9086 983f 9d99 85be 4c51 d03e
000000d0: b644 07be 30be 99be 7aa4 1a3e 4ad8 8d3d
000000e0: 0aaa f3bd 0069 e2bd e054 c9bd 8b51 be3d
000000f0: 47af df3e e2b7 283e a071 6dbe 6e30 943c
00000100: 8a42 593d af42 f43d 5c06 403e c731 67bd
00000110: 0128 38be b489 84bd 4a3d 49bd b17c b33e
00000120: d03e 1839 4542 4f3a 6cf9 0bbb 8c39 a6b9
00000130: a42d fcb9 5a51 6bbb 8ab5 6f3d a6db 703d
00000140: 3d45 653d 6ef1 c93d ea5d da3d e07f 13be
00000150: c45f 48bc 78f0 223e 660d 0e3d 76d3 c7bd
00000160: 7735 303e 74b3 283e 27cf 01be f4cb 4bbe
00000170: f66a 153d 45b3 eabc ccc4 2ebe e04e 7b3d
00000180: 9c55 ec3d 8c79 13be 5777 0dbe c439 b8be
00000190: 8b64 533e a850 15bd bdf7 a8be 5640 0d3f
000001a0: 8a0e a0be 49ed 43be 67a7 633e 3f76 82be
000001b0: 3d8d 123c f50b 8a3e 5d88 e8bd 05f0 97be
000001c0: 136c da3e 1f83 cabe f537 99bd 2445 c83e
000001d0: f309 45be a055 3bbd 271f e5be c381 8e3e
000001e0: e2b9 d93e 36a7 2fbf 5ea9 2c3f b997 113d
000001f0: 1a7f 9bbe 1c39 043e cc7f 2dbd e2df d8bd
00000200: 3545 f1bd 7868 a73d 8f84 18be fbaf 15bd
00000210: f225 1d3e 6cea 0dbe 18b7 fc3c 5135 943d
00000220: d7dd f3bc c8d3 6bbe 7091 98bd 03ba d4bd
00000230: ed00 d3bd d857 0d3d 0182 ffbc 319a da3c
00000240: e6eb d4ba e8c7 7db9 d046 97b8 b3e1 073d
00000250: 2cec 123d aa66 213d b14f 903b 8fd8 99b8
00000260: 458a d238 b811 dcbc 13a7 fab9 0bf9 263d
00000270: 5dab 623c bccc 183b ff78 b03d f444 11be
00000280: 509f a9bd 3bbb 113d ba85 32bd 8a8c 493e
00000290: 384f 8e3e 9e20 af3d 4c86 8b3e 730e ab3e
000002a0: 2ec0 89be f7f6 1e3e dc9d fe3d 5e3f f83d
000002b0: 9f86 423e 777d 833e 43cb da3d c4c3 3d3e
000002c0: 7ec1 413e 91b7 e4be 2a80 b2be 2a4b 49be
000002d0: 2e0f 74bd 5d65 0d3f 5b5a 193d b6c7 aabd
000002e0: fff3 673e 10d3 863d b9f1 32be de09 cd3e
000002f0: fc13 03be 8455 d43d 670d 2c3e 8b7d 333d
00000300: 9da8 0cbe b57d 93be bfbe 4ebe 0517 a43d
00000310: 7923 eabc d73e 56be 6587 41be 198a f0bd
00000320: aa11 42bd e19a 3d3e 2d34 af3e 2d57 e43e
00000330: 56bd 47be 0425 4e3d dde8 793e 7660 f5ba
00000340: dd03 34bc 8608 043e d29f c03d 496d 683e
00000350: b45b 833e f28f 7ebe 2d46 c9bd 7b00 f8bd
00000360: b664 2f3a 742b 8339 4f57 69ba 0629 6dbb
00000370: 7c82 6fba f261 d9ba 298f 193d 7338 ef3c
00000380: 6099 dc3c 134e 853d bd65 963d 7dfc fe3d
00000390: 6870 f1ba 290c 19bd 8bdf aa3c c3bd a4bd
000003a0: ac11 40bd 366b b43c 2a04 d8bc dc6b 23be
000003b0: d2b9 aabe 2a9b 74bd a23a 17be 1878 7fbd
000003c0: 61ab 333e 6fbc b33b 1b62 0abd 32ea 6a3c
000003d0: 7d2d 813d 6654 983d 59f2 28bc 8c88 203e
000003e0: e59b 04be e32a 23be 9af3 ac3d 3804 d13d
000003f0: 5586 30be 7332 f83d 5707 0f3e bcdc 80be

layer2.1.bn1.weight f4 [8]
3.2651606 2.7897756 2.3385143 2.5516374 3.087742 2.8160598 2.7744904 3.012778
00000000: 64f8 5040 af8b 3240 38aa 1540 074e 2340
00000010: 919d 4540 533a 3440 4091 3140 5bd1 4040

layer2.1.bn1.bias f4 [8]
-0.56694055 0.15376194 0.28541088 0.25627714 0.21741107 -0.48071256 -0.22205214 -0.6230758
00000000: 0423 11bf c573 1d3e 6021 923e c236 833e
00000010: 02a1 5e3e f51f f6be a361 63be e581 1fbf

layer2.1.bn1.running_mean f4 [8]
21.623981 -10.621494 18.433329 8.254123 -8.83868 7.960349 -5.4858375 14.693624
00000000: eafd ac41 a4f1 29c1 7577 9341 e310 0441
00000010: 3c6b 0dc1 2ebb fe40 fb8b afc0 1519 6b41

layer2.1.bn1.running_var f4 [8]
602.51263 598.45306 343.86832 502.27423 597.4002 427.49896 562.9717 729.86847
00000000: cfa0 1644 ff9c 1544 25ef ab43 1a23 fb43
00000010: 9d59 1544 debf d543 30be 0c44 9577 3644
