save_CIFAR10_model/channel/model_resnet-20--channel*0.5.pt (torch, 316980 bytes, 96 tensors)

conv1.weight f4 [8, 3, 3, 3]
000000 d8 be 7e be 69 c7 14 bf a2 15 fb 3e b7 82 87 bf
       -0.24877489 -0.58116776 0.49039942 -1.0586766
000010 26 92 48 bf 19 5a 35 be de 64 a1 3e c6 32 9b be
       -0.78348005 -0.17710151 0.31522268 -0.30312175
000020 75 72 8e 3f 96 38 27 3f 37 31 1a 3f a2 f2 08 bd
       1.112868 0.6532072 0.60231346 -0.033434518
000030 f2 02 e0 3e 30 03 7b 3f e4 9e a1 be 34 1b 7c be
       0.43752247 0.9805174 -0.31566536 -0.24619752
000040 19 66 3f bf 4f cd ee be e8 47 ae be 2b a7 f4 3d
       -0.74765164 -0.46641013 -0.34039235 0.11945947
000050 90 55 5b bf ed 0e 29 3f 0f 64 ee 3f 27 f1 17 be
       -0.85677433 0.660384 1.8624285 -0.14838086
000060 4d bf 6f 3d ec d3 16 3e 8d 04 91 be 1f 7b 0d bf
       0.058532048 0.1472928 -0.28323784 -0.5526599
000070 29 ad 61 bf 6e f7 d5 be cd 01 3c 3e 44 b6 5d bf
       -0.88154846 -0.41790336 0.18360062 -0.8660624
000080 e8 56 5d bd 1b 83 13 3f ff 22 81 3f 54 8d a3 3f
       -0.05403796 0.57621926 1.0088805 1.2777505
000090 fb ab 71 3e c7 49 21 be 9f 2c 27 bd bf 28 dd 3e
       0.23600762 -0.157508 -0.04081404 0.4319515
0000a0 9e 2e 40 bf 00 a0 14 bd 5a 98 9b be 7a ed f3 3d
       -0.7507113 -0.0362854 -0.30389673 0.119105294
0000b0 5b a4 14 3f 2c 97 23 3f cd 76 39 3e be 53 95 3e
       0.58063287 0.63902545 0.18111725 0.29165453
0000c0 ff 79 13 3f 4e 72 76 bf cd fc 3c be 23 90 da be
       0.57608026 -0.96268165 -0.18455811 -0.42688093
0000d0 7b ee ec be 5f 1a 82 3e 84 0e 20 3f 41 4e 20 3f
       -0.46275696 0.25410745 0.6252215 0.62619406
0000e0 9d dd aa be a3 d2 17 3f 56 dc a6 bf 21 7d 47 3f
       -0.33372203 0.5930578 -1.3035991 0.77925307
0000f0 b1 35 af 3e 8d 77 4f 3e fc 24 6f bf f6 de 59 be
       0.3422065 0.20260449 -0.9341581 -0.21276459
000100 71 e4 b9 bd e3 41 b8 3d a6 43 26 bf 08 ba 03 c0
       -0.09076775 0.08996942 -0.64946973 -2.0582294
000110 e2 2e 7c 3f 6a 66 a7 bd 5c ef ae 3e ae c8 54 bd
       0.9850904 -0.08173831 0.34166992 -0.051949196
000120 70 22 78 bd 11 ad 9e 3e ad 25 d2 be 45 3f 8f be
       -0.060579717 0.30991414 -0.4104437 -0.27977958
000130 08 6e 9b bf a5 dd ab 3f 1f 06 18 3d b9 01 34 3f
       -1.2142954 1.3427016 0.037115213 0.7031513
000140 4e 3f 14 3f 35 13 69 be 72 c7 8d 3e 1e 7d 38 3f
       0.57909095 -0.22761233 0.27691227 0.72065914
000150 bd 8c 09 3f bd 6e eb 3e 6a 07 bf bf 0b d7 46 be
       0.53730375 0.45982924 -1.4924138 -0.1941797
000160 a7 4b 60 3f 67 56 1e bf 14 77 60 3e 5d 22 9a bd
       0.87615436 -0.6185059 0.21920425 -0.075260855
000170 18 1b dd 3e 0d 89 d3 3e c9 5b b8 be fb ef f4 bf
       0.43184733 0.413155 -0.36007527 -1.9135736
000180 dd d2 16 3e 0f fa 5a 3f a7 29 d2 bd 9a 73 86 be
       0.14728875 0.8553781 -0.10261851 -0.26260072
000190 76 e6 d9 bd f7 c9 89 3f 67 b4 3b 3e 34 d9 6f be
       -0.1063966 1.076476 0.18330537 -0.234227
0001a0 51 6b 82 bf 86 65 0b be f1 e4 04 3f 1f 2b 30 be
       -1.0189 -0.13612947 0.51911837 -0.1720395
0001b0 61 55 54 be 1d 6f 92 3d 4c 2c 70 3e 83 3c 20 be
       -0.20735694 0.071500994 0.23454398 -0.15648083
0001c0 b7 f8 a8 bb c6 50 0e 3e 93 55 d5 3d f6 47 ae bf
       -0.0051566022 0.13898 0.104167126 -1.3615711
0001d0 cb 2a e9 be d7 8f bb 3d ee 47 0e 3f 94 6c 83 3e
       -0.4554046 0.09158295 0.55578506 0.25668776
0001e0 d8 6f 8a 3e 94 c3 2d 3f ea 53 b6 3e e1 a3 2c 3d
       0.27038455 0.67876554 0.35610896 0.042148475
0001f0 09 4e 8d bf d4 6c f3 be 2f e3 c2 be 52 76 7b 3e
       -1.103944 -0.47543967 -0.38063952 0.24556854
000200 f5 9f cd be 51 a2 d1 3d 7b 4e 64 3f 1f 0f 4d 3e
       -0.401611 0.102360375 0.8918225 0.200253
000210 4d 5c 47 3e b3 57 0e bf 0b 20 a7 be ca ba b0 be
       0.19468804 -0.5560257 -0.32641634 -0.3451751
000220 c4 3e 03 be 63 20 04 3f ce a0 75 3e f5 98 ba bf
       -0.12816912 0.5161192 0.23987123 -1.4577929
000230 45 9f 96 3f 90 c4 9a 3d 3a 8c 7d bf 87 b7 6e 3f
       1.1767355 0.075570226 -0.99042094 0.9324879
000240 5e bb 9a 3e d3 3d 02 bf 74 77 09 bd 7f 00 84 3f
       0.30221075 -0.50875586 -0.033561185 1.0312651
000250 f5 4a cf bf c4 90 3c 3f 3b 4c 2b 3f 38 c1 89 bf
       -1.619475 0.73658395 0.66913193 -1.0762091
000260 b4 7f 02 3f 05 61 13 3e c4 fd 00 bd 0e a7 82 be
       0.5097611 0.14392479 -0.03149201 -0.25518078
000270 f4 bf 5b 3f d0 0a 8c bf c9 65 e9 3e 3d 1e 07 3f
       0.8583977 -1.09408 0.45585468 0.52780515
000280 8a e1 49 bf 54 5d 47 3e 2a 34 03 3e 65 d0 5a 3f
       -0.7885977 0.19469196 0.12812868 0.85474235
000290 d3 e2 fe be 76 af 2a 3f c9 88 3f 40 62 57 54 bf
       -0.49782428 0.6667398 2.9927237 -0.82945836
0002a0 4a aa 35 be 8b 4e b1 bf 84 c3 a9 be 3c 91 cf bd
       -0.17740741 -1.3852094 -0.3315698 -0.10135123
0002b0 13 99 af be 33 a5 11 3e 10 02 39 bf c2 d2 23 3f
       -0.34296474 0.14223175 -0.7226877 0.63993466
0002c0 26 98 31 bf 5a 33 1b 3f 54 ea ad bf 64 32 8e 3f
       -0.69372785 0.6062523 -1.3587136 1.1109128
0002d0 05 86 cf bd 10 6a 1e bf cb ba 0e 3f 17 b8 6b bf
       -0.10132984 -0.6188059 0.55753773 -0.92077774
0002e0 e7 d8 4b 3f 0a 34 1b bf b3 90 b0 3e e6 fa 3f bf
       0.7962784 -0.6062628 0.34485397 -0.74992216
0002f0 df 25 6e 3f 8c 25 6a be 60 73 fb be eb e7 a6 be
       0.93026537 -0.22865885 -0.49111462 -0.32598814
000300 dd 84 e4 be fd 53 07 bf 80 00 20 bf 67 73 45 be
       -0.44632617 -0.5286253 -0.6250076 -0.19282304
000310 1c 16 ba be 6b d6 82 be 60 70 75 3e e9 37 32 3f
       -0.36344993 -0.25554213 0.23968649 0.6961656
000320 7e ba bc 3e c9 02 4a 3f 10 23 c7 3f bc 88 5a 3f
       0.36861032 0.789105 1.5557575 0.8536489
000330 75 fb 1a 3f ae 93 86 3f f9 30 30 3f c1 c1 db 3c
       0.6053994 1.0513818 0.68824726 0.026825787
000340 4a de a9 be 4e 02 00 3e b4 35 da be 7e 89 3c bf
       -0.33177406 0.12500879 -0.42619097 -0.73647296
000350 45 dd f3 be e7 1d 0a bf dc 0a 83 bf 45 3a d3 be
       -0.47629753 -0.5395188 -1.0237689 -0.41255394

bn1.weight f4 [8]
000000 21 d3 90 40 ad 9b 64 40 aa d8 b3 40 fe e5 bc 40
       4.5257726 3.5720017 5.6201982 5.903075
000010 ce ac 6c 40 85 b4 9d 40 aa 9d d5 40 6c d9 6d 40
       3.6980472 4.928286 6.675496 3.7163954

bn1.bias f4 [8]
000000 ad c2 83 40 6e d9 08 40 83 85 91 40 4a da 84 40
       4.117514 2.1382709 4.547548 4.1516466
000010 c5 eb 43 40 e9 d2 c2 3e 43 25 a8 40 93 05 a9 3f
       3.0612652 0.38051537 5.2545485 1.3204826

bn1.running_mean f4 [8]
000000 6e ad 25 3d c6 86 6c 3d e6 71 34 3e ac b6 0e 3c
       0.0404486 0.057745717 0.17621574 0.008710545
000010 14 0e 57 3e 64 ca 4e 3e a8 11 85 be b8 37 a9 bc
       0.21001464 0.20194393 -0.25990033 -0.020656452

bn1.running_var f4 [8]
000000 2b 92 3c 40 b5 8b 91 40 35 1a 5d 40 1a ba cf 40
       2.9464214 4.548304 3.4547246 6.4914675
000010 1b 7a c8 40 f7 99 22 41 f0 f9 12 40 13 83 4d 40
       6.2649055 10.162589 2.296505 3.2111251

layer1.0.conv1.weight f4 [8, 8, 3, 3]
000000 c0 af fc 3d 73 1d bc bc 15 cc 0f 3e 8c bd 18 be
       0.12338209 -0.022963261 0.14042695 -0.14916056
000010 7a 0a 9e bd c1 c6 23 3e 9d 1f 52 bd 89 2e 9f bd
       -0.07716842 0.15993787 -0.05129968 -0.07772548
000020 0f 3c 39 3d 8e c4 0a be ca f5 db 3d f0 ba 81 3d
       0.045223292 -0.13551542 0.1074024 0.063344836
000030 a1 e9 38 3e a1 64 58 bd ec dd e2 bd 3e 58 21 bd
       0.18057872 -0.052830342 -0.110774845 -0.039390795
000040 3c e1 27 bb a2 e8 a9 bd c0 e5 d3 3d b1 cc 66 3e
       -0.0025616428 -0.08296324 0.10346556 0.22539021
000050 59 a9 a9 3d 61 9f da 3e 0f 99 28 3e e5 cf 0a be
       0.082842536 0.4269972 0.16464637 -0.13555868
000060 25 74 b7 be 55 9e 43 bd ec 50 af 3d 85 ef f7 bd
       -0.358308 -0.04775842 0.085603565 -0.121062316
000070 99 76 7a 3d eb fc e6 bd c9 67 2f bc 26 67 5b be
       0.06114826 -0.11278709 -0.010705897 -0.21426067
000080 9a 7a 04 be 7b 45 82 3e 91 23 27 3e 54 64 85 3d
       -0.12937394 0.25443634 0.16322161 0.06513277
000090 d0 e7 07 3e 8f 9d 4f be 9f 6b 3f be b8 36 35 bd
       0.13272023 -0.20274948 -0.18693398 -0.044241637
0000a0 2e 68 54 3e c4 60 60 3d 8c 89 49 3d ea f8 8a 3d
       0.20742866 0.054779783 0.04920344 0.06785758
0000b0 90 1e ab bd d5 96 08 be 3a 19 6a be a9 b5 0a be
       -0.08355439 -0.13338788 -0.22861186 -0.1354586
0000c0 f4 10 7d be 8c fd 7b be 41 c6 61 be 4c 16 95 bd
       -0.24713498 -0.24608439 -0.22048284 -0.072796434
0000d0 61 52 0e be 6c ae 9f be 08 ba 15 3e 85 f7 1e 3d
       -0.13898613 -0.3118776 0.14621747 0.03881027
0000e0 28 7e 08 be aa b0 4e be 14 1a bc 3d c7 a4 fc 3d
       -0.13329375 -0.2018458 0.091846615 0.12336116
0000f0 42 62 5a 3e 71 3f 12 bd 05 1e f9 bd 94 b9 1f be
       0.21326545 -0.035705034 -0.12163929 -0.15598136
000100 59 75 29 bd 8a 49 83 3e 59 65 2c be 29 34 a8 bd
       -0.041371677 0.25642043 -0.16835536 -0.08213074
000110 cd 82 76 3e a1 cb a1 3d 44 55 17 bc 1f 10 83 3e
       0.24073334 0.07900167 -0.0092366375 0.25598237
000120 fb 68 97 bd 8a 4b db 3d 5d 37 cb bd 1e 43 fc 3d
       -0.0739307 0.10707767 -0.09922669 0.12317489
000130 ac a4 06 be c1 22 6a bd 2a 56 5b 3d e4 2e 84 bd
       -0.13148755 -0.05716205 0.05354897 -0.06454256
000140 56 47 f3 bd 3b 2e a4 bd 6d ec fa bc 6f 19 51 bd
       -0.118788406 -0.0801663 -0.030630315 -0.051049646
000150 a8 9f 71 3d 4a c2 98 3e 83 ac 65 3d 45 73 4e bd
       0.05899015 0.2983573 0.056072723 -0.0504029
000160 eb 3f 30 3d 59 bd c0 bd 5f 73 ac bd b7 57 fe bd
       0.043029707 -0.09411115 -0.08420443 -0.12419074
000170 05 93 2e be d0 60 01 bf 80 e5 47 3d 70 38 09 be
       -0.17048271 -0.5053835 0.048802853 -0.13400435
000180 f7 ff ed bd ec 90 3e bd 92 c7 ea 3c 63 77 98 3d
       -0.11621087 -0.046524927 0.028659616 0.07444646
000190 65 a3 16 be 91 03 ed bc 6a 4c d6 3d 58 aa f6 bc
       -0.14710768 -0.028932365 0.104637936 -0.030110523
0001a0 d7 08 14 bc 28 18 0b 3e ae aa ae 3d b6 5b 04 bd
       -0.009035311 0.13583434 0.08528648 -0.032314025
0001b0 db 3e 18 be 33 ee 08 3e cb a0 cd 3c 09 ee 84 bb
       -0.14867727 0.13372116 0.025101086 -0.0040566963
0001c0 87 96 63 bd 31 0d fd bd e9 18 ae 3d ca bf 36 be
       -0.055563476 -0.12356032 0.08500845 -0.17846599
0001d0 53 aa 19 bd de 11 5b be 2e 7c ca be dc 55 67 be
       -0.03751595 -0.21393535 -0.39547867 -0.22591347
0001e0 c8 00 dd bd 9b 2e 70 be 83 8a 73 be a8 89 05 be
       -0.10791165 -0.23455279 -0.23783307 -0.13040793
0001f0 76 fc 59 be 43 f4 4c be 21 36 2d be f5 93 ad bd
       -0.21287712 -0.20015053 -0.1691518 -0.08475486
000200 e2 ab 7e bd f3 95 b9 bb f5 10 88 be 73 e9 dd bc
       -0.06217564 -0.0056636273 -0.26575437 -0.027088856
000210 e9 0e ea bc 89 cd e9 bd 02 14 12 3d aa 02 9c bd
       -0.028571563 -0.11416156 0.035663612 -0.07617696
000220 64 5b 08 3e 7c f9 c0 3d e7 2e e8 bd 0c 0e bd bc
       0.13316113 0.09422585 -0.11337071 -0.023077987
000230 79 6d c8 3d e2 ee 82 be 21 dd 48 be 6e a0 b6 bd
       0.09786505 -0.25572878 -0.19615604 -0.08917318
000240 07 1d ff bd 9d 8c e7 3d 1e ea 11 3e c6 e3 92 3d
       -0.124567084 0.11306117 0.14249465 0.071723506
000250 e4 86 8e 3e aa 3d 91 3e 7b 88 4c be 2c 96 74 3d
       0.27837288 0.28367358 -0.19973938 0.059713528
000260 37 cc e6 3d 69 e7 40 3e 66 a4 28 3d 0f ac 0e bd
       0.1126942 0.18838276 0.041172408 -0.034832057
000270 2a 16 79 bc 88 fc 7e bc ba 1f e1 3c ad 46 1e 3e
       -0.015203038 -0.015563138 0.027480949 0.15456648
000280 65 38 77 3e 48 d3 68 3e f5 61 b1 3d 0a a7 03 3a
       0.24142607 0.22736847 0.08661262 0.0005022144
000290 38 03 4a bd 52 17 6b be 73 1e 8a be 53 ce 71 be
       -0.049319476 -0.22958115 -0.26976356 -0.23613863
0002a0 c6 c0 38 be ca da 2a bd 1c cf ad bd 51 4a 0c bd
       -0.18042287 -0.04171256 -0.084867686 -0.03425056
0002b0 89 9f ca 3b 74 43 e8 bd c5 f1 55 be c6 6e de bd
       0.006183569 -0.11340991 -0.20893009 -0.10860972
0002c0 28 6a 22 bd 0d ae 2e 3d a8 b0 0d 3e e5 cd a1 bc
       -0.03965202 0.042646457 0.1383692 -0.019751498
0002d0 9a 77 85 bb ed a3 6e bd ee 04 12 be 02 ad 92 3e
       -0.0040730955 -0.0582618 -0.14259693 0.2864762
0002e0 e9 3a 83 3e 94 0c ba 3c 3b 4b a4 3d 14 d2 7c 3d
       0.25630882 0.022711076 0.080221616 0.061723784
0002f0 b4 0f 56 bd f7 d0 3a bd 6f ac 4d bd 5b 7e 07 3c
       -0.05226107 -0.04560944 -0.050213274 0.008269872
000300 a5 e4 c8 bd e0 ef 55 bc 20 5c 84 3d 63 c3 fc 3c
       -0.098092355 -0.013057679 0.06462884 0.030854886
000310 bb f5 63 3e 77 c4 2d 3e 0f 7c 32 3e 71 03 ee 3d
       0.22261707 0.16969477 0.17430137 0.1162175
000320 ab b9 23 3d 7b 86 53 be 12 5a 7e be 0b 9d b1 be
       0.03997199 -0.20656769 -0.24839047 -0.34690127
000330 3b b0 fb bd 6b 3f 84 bd b3 b6 4f bd bd 79 8c bd
       -0.12289473 -0.064574085 -0.050711345 -0.06859157
000340 d4 80 31 be 4c ee 15 be 56 67 f8 bc 94 fa f4 bd
       -0.173343 -0.14641684 -0.030322712 -0.119618565
000350 2d ca ba bd b9 04 db 3d 8c 92 52 3d 4b 11 59 3d
       -0.09120593 0.1069426 0.05140929 0.052995007
000360 a7 1f 86 3d ea 8b 05 bd c1 75 dc bd a4 f7 e8 bd
       0.06549006 -0.032604136 -0.10764647 -0.11375359
000370 e6 47 a0 bd 74 d5 e4 ba f3 52 0f 3b be 7d b5 3d
       -0.078262135 -0.0017458634 0.002186951 0.08861874
000380 e6 0d 9d bb 26 f8 a3 3d 80 44 82 bc 12 46 8f bc
       -0.0047929166 0.08006315 -0.015901804 -0.017489467
000390 67 38 d0 3d 64 33 8e 3d 64 12 46 3e 45 0e 62 be
       0.10167008 0.06943396 0.19342953 -0.22075756
0003a0 70 a7 18 3e 47 71 ad bd 86 28 48 be 4a f5 b4 bd
       0.14907622 -0.084688716 -0.19546708 -0.08835848
0003b0 50 0e d8 bd 49 23 19 3e a2 10 90 be a3 d8 ae 3c
       -0.10549605 0.14954866 -0.2813769 0.021343535
0003c0 1c 09 7f 3d ae 89 d0 3e 87 00 7f 3e d5 1c a8 bd
       0.062264547 0.4073004 0.24902545 -0.08208624
0003d0 85 3d 2b 3e 59 68 cf bd 98 80 0c bd aa a8 6f 3d
       0.16722687 -0.101273246 -0.034302324 0.05851046
0003e0 db 00 56 3b cf 3f 53 3e e9 f8 63 bd 93 c8 5b be
       0.0032654318 0.2062981 -0.0556573 -0.21463232
0003f0 c2 41 3c bd a8 aa cf bc d9 0f 67 3e 2e 34 68 3d
       -0.04596115 -0.02534993 0.22564639 0.056690387

layer1.0.bn1.weight f4 [8]
000000 b6 27 e8 3f 52 69 e5 3f fb da bb 3f 20 14 f6 3f
       1.8137119 1.7922766 1.4676203 1.9224892
000010 93 8b ff 3f ac 41 2b 40 6d a8 4e 40 a7 60 0a 40
       1.996447 2.6758833 3.22903 2.1621492

layer1.0.bn1.bias f4 [8]
000000 af f7 80 3f 60 41 a8 3f b1 b1 4d 3f 81 fa 14 3f
       1.0075587 1.3144951 0.8034926 0.5819474
000010 02 7a 8d 3f 4c bd d6 3f 5d 43 ce bf fa 63 b8 3f
       1.1052859 1.6776519 -1.6114308 1.440551

layer1.0.bn1.running_mean f4 [8]
000000 df f0 07 40 df 6b 44 c1 75 47 9f c0 30 48 0c 40
       2.1240766 -12.276336 -4.977473 2.191906
000010 92 49 6d c1 ed 9a 69 c1 2b d4 95 41 04 4c f0 c0
       -14.8304615 -14.600324 18.728598 -7.5092793

layer1.0.bn1.running_var f4 [8]
000000 46 5b 1e 42 7d 02 34 42 6e 38 42 42 c4 98 3c 42
       39.589134 45.00243 48.555107 47.149185
000010 72 9b 94 42 e0 bf bf 42 7b d1 2f 43 4a ed 89 42
       74.303604 95.874756 175.81828 68.963455

layer1.0.conv2.weight f4 [8, 8, 3, 3]
000000 45 ca 16 3c 76 03 99 3c 15 de e2 bc 47 3e 77 3d
       0.009203498 0.018678408 -0.027693788 0.060362127
000010 66 a6 4c 3d db 34 37 bd fc 97 67 3c bb 1f f0 bc
       0.049963377 -0.04472814 0.014135357 -0.029312005
000020 68 a0 0c bc 7d b9 71 be 96 8a c2 bd 62 a5 0d 3e
       -0.008583166 -0.23605914 -0.094990894 0.1383262
000030 e8 c1 49 be 21 ff 8c bc 85 2e 64 3e 81 fb 06 be
       -0.19702876 -0.017211499 0.22283371 -0.13181879
000040 ec 9f b4 3d 30 7a 4e 3e 60 b4 89 bd dd 75 b2 3d
       0.08819565 0.20163798 -0.06723857 0.08713887
000050 2a 1b fe 3d c5 7d 24 3e f8 bb a5 3e 80 2f 87 3e
       0.12407525 0.16063602 0.3236997 0.26403427
000060 d4 92 54 3e d9 46 b2 3e 1a 2e a1 3e bb 02 2d 3d
       0.20759135 0.34819677 0.31480485 0.042238932
000070 30 f4 d7 bd 01 e7 66 bd a6 ac b8 bc 4d 37 8e bd
       -0.10544622 -0.056372646 -0.022543263 -0.069441415
000080 f8 57 f4 bd 11 ba ab bd c2 8a 06 be 25 21 01 bc
       -0.11930841 -0.08385099 -0.1313887 -0.007881437
000090 b4 ee bd bc f4 74 c4 bd 90 ae 90 be a4 c2 da bc
       -0.023185112 -0.095926195 -0.2825818 -0.02670414
0000a0 2b ad a1 bd 0b 8e 28 be ed 49 de 3d 99 07 52 3d
       -0.07894357 -0.16460435 0.10853944 0.051276777
0000b0 f9 12 a2 bd 72 59 84 bc dc 8c 88 3d d9 6d fb 3d
       -0.07913775 -0.016155932 0.06667492 0.12276811
0000c0 bc 30 02 be 26 9b a9 3c f2 5f 61 3c c5 8a 62 be
       -0.12713903 0.020703863 0.013755785 -0.22123249
0000d0 cb 81 62 be 72 7d 94 bc 0b eb bc bd ca 97 f1 3a
       -0.22119825 -0.018126223 -0.092245184 0.0018432077
0000e0 9d 9c 15 be fc e1 0c 3d aa c3 81 3e a9 9c 99 bd
       -0.14610524 0.034395203 0.25344592 -0.07500584
0000f0 44 bd 92 bc 53 d5 21 3e df 6c 12 be 7a 1c 0a 3d
       -0.017912515 0.15804033 -0.14299344 0.033718564
000100 7a 14 a2 be a2 53 69 bc 8c 49 59 3d 41 b3 1a be
       -0.31656247 -0.014241131 0.053048655 -0.15107442
000110 97 ac a3 3a f4 24 33 bc 2e 5f ff bd b7 cf 8d bb
       0.0012487349 -0.010934103 -0.12469326 -0.00432774
000120 db e1 00 3a 92 4b 30 3e 20 f9 8a 3d 79 f5 02 be
       0.00049164676 0.17216328 0.06785798 -0.12788953
000130 99 66 b7 3a 2a 19 59 3e 72 3b b4 3d 19 e8 38 3e
       0.0013992368 0.21201006 0.08800401 0.18057288
000140 d1 a9 bf 3c f0 cb 30 be c1 83 0a 3d 69 d7 14 3d
       0.023396404 -0.17265296 0.033817057 0.036338244
000150 41 39 b1 bd 0e b5 ad 3d be 85 1a bd af d4 a1 bb
       -0.086534984 0.08481799 -0.037725203 -0.004938684
000160 8e b2 78 3d 5b 8a 67 bd 6d 05 cc 3d 1d 80 9c 3d
       0.060717158 -0.05652843 0.099619724 0.07641623
000170 71 07 13 3e 5b ac 40 3d a4 5f a8 bd ce 52 5d 3d
       0.14358307 0.04703937 -0.08221367 0.054034047
000180 fe 55 19 3d 0f 5d 16 bd 9d 1a 5e 3d 78 ad b3 3d
       0.037435524 -0.03670984 0.0542246 0.08773321
000190 c4 17 51 3e 12 4d a8 3d 05 63 9c 3e 93 1d d8 3c
       0.20419222 0.08217825 0.30544296 0.02638129
0001a0 b3 52 be 3d f2 da 71 3b f1 00 23 3e 66 14 d1 bb
       0.092931174 0.0036904183 0.15918328 -0.0063806055
0001b0 44 03 5a 3b 8c e8 0c be 9a 2d 98 bd 69 17 a1 3d
       0.0033266107 -0.13760585 -0.07430573 0.07865793
0001c0 7a 67 4b bd 71 4b bb bd fa e0 58 3e c0 8c 12 bc
       -0.04965923 -0.09145249 0.21179572 -0.00894469
0001d0 2b 52 8d bd 35 28 de bd 5f 0e 51 be 80 4d 36 bd
       -0.06900438 -0.10847513 -0.20415638 -0.044507504
0001e0 84 da 94 bd 61 2a 08 be ea 33 43 3d 86 a2 bb bb
       -0.07268241 -0.13297416 0.04765693 -0.0057261614
0001f0 8f 7f 2f 3d 87 e7 8a 3e 66 5a 77 bc f9 57 01 bf
       0.04284626 0.27129766 -0.015097236 -0.5052486
000200 7c 2d 53 be f5 47 8c 3e 7d d2 61 be 0c df 32 3d
       -0.2062282 0.2739865 -0.22052951 0.043669745
000210 46 cf 03 3f a8 21 d8 bd 06 41 3a 3e ed bd d7 bd
       0.5148815 -0.105532944 0.18188867 -0.10534272
000220 42 31 b1 3d 66 97 c5 bd 5c 0b f6 ba 7d 1e e0 3d
       0.08651973 -0.096480176 -0.0018771696 0.10943315
000230 b9 da 24 bd 63 06 a1 3d 90 c0 b5 3e 11 65 9a 3d
       -0.040247653 0.07862546 0.35498476 0.07538808
000240 31 d0 92 bc b9 8f 8e bd f4 2c 00 be 93 68 92 bd
       -0.017921539 -0.06961007 -0.12517148 -0.07148852
000250 26 aa 89 bc ce 3b d0 bc 6a 8f b9 3d 7e d5 ee 3d
       -0.016804766 -0.025419142 0.09060557 0.11661814
000260 eb b0 28 3d 5c 2c 57 bd a0 1a 6a bd 57 53 02 be
       0.041184347 -0.05253254 -0.057154298 -0.12727104
000270 c9 51 44 be f0 07 00 be b0 90 c7 be fc d4 bc bd
       -0.19171824 -0.12503028 -0.38977575 -0.09220311
000280 5d 46 af bd f0 0d 98 bd db 9a 31 3e 60 58 43 3d
       -0.085583426 -0.07424533 0.17344229 0.047691703
000290 a3 1c 13 3e b7 93 03 3e 07 59 f8 bc 69 a6 4f 3e
       0.14366393 0.12849317 -0.030315889 0.20278324
0002a0 17 31 05 3e 9b 18 8b 3d 66 bb a9 3e c6 32 4c 3d
       0.13007008 0.067918025 0.33150786 0.04985311
0002b0 0a d4 64 3e c4 e4 7e bb aa 6d f4 3c 8f 7b b4 bc
       0.22346511 -0.003889368 0.029837448 -0.022031574
0002c0 42 ad 67 3d 77 41 e6 bd 67 08 84 bd a7 00 37 be
       0.056561716 -0.11242955 -0.06446915 -0.17871343
0002d0 2f a5 e7 3c 44 5a 53 bc 2e fc 0d 3e 6b e3 e1 3d
       0.028277008 -0.012899939 0.1386573 0.11029705
0002e0 7e ab 9e 3c 4f 09 a6 3d ab a4 f2 bc 4d 50 7b 3c
       0.019368883 0.08107244 -0.029619535 0.015338969
0002f0 90 5a 3d bd af b2 63 bd a0 cf 81 bd 70 5d e3 bc
       -0.046228945 -0.055590328 -0.063384295 -0.027754515
000300 16 26 70 bd 82 2a 6a be d5 00 0a 3d 05 52 88 3d
       -0.05863007 -0.22867778 0.0336922 0.06656269
000310 87 c7 2b 3d 77 36 93 bd ee ec 69 3e dd ab e0 be
       0.04193833 -0.07188123 0.22844288 -0.4388112
000320 89 0e 31 3e ea 71 93 3e e5 ad c8 be ea 81 99 3e
       0.17290701 0.28797847 -0.3919517 0.2998193
000330 d5 a3 db bb d2 55 52 bf 4f 95 8a 3d a7 9e 46 3e
       -0.00670288 -0.821622 0.067667596 0.19396459
000340 fd 45 6c 3e 4e cc 0b be 19 e6 57 3d 3a 28 41 3e
       0.23073573 -0.13652155 0.052709673 0.18863001
000350 12 fb 23 3c 9e 76 fa 3d 0a c2 b7 3d 2d c7 80 bd
       0.01000859 0.12229656 0.08972557 -0.0628799
000360 e4 b5 4d bd ad 6f 28 bd 6d 6a f3 3d 39 a2 56 be
       -0.050222293 -0.041122127 0.118855335 -0.2096032
000370 dc 8b 2f be 19 3f 21 bd b6 fc 2d be 00 0c 82 be
       -0.17143196 -0.039366815 -0.16990933 -0.2539978
000380 d6 cc 8c bd 43 7e 9d 3d 43 fe 63 bd e6 93 31 3d
       -0.06875007 0.07690098 -0.055662405 0.043353938
000390 e6 88 81 bd 47 97 4a bb 99 c9 1e 3e c1 fa 04 3d
       -0.063249394 -0.0030912922 0.15506591 0.0324657
0003a0 06 c4 e6 bd 4e 49 02 3d fb 49 05 3d 04 3e 91 bd
       -0.11267857 0.03180819 0.032541256 -0.07091907
0003b0 78 31 d5 3d af 11 20 3d 8e cf 27 bd 44 2c 84 3d
       0.10409826 0.039079364 -0.040969424 0.064537555
0003c0 da ca bf 3d c0 dc 7d 3c 66 21 fc 3a f3 8f d2 bd
       0.09364863 0.015494525 0.0019236028 -0.102813624
0003d0 dc 8f 83 3c e8 33 d0 3d 45 0c ff bd 2a 53 9b bc
       0.016059808 0.1016615 -0.12453512 -0.018960554
0003e0 9b 40 aa 3d c8 bf 0e be 77 97 9a bd 4f 07 7d 3a
       0.08313104 -0.13940346 -0.07548421 0.0009652273
0003f0 1b 48 03 3b 04 73 af bd 0a 72 7f be 14 7d 5b be
       0.0020031992 -0.08566859 -0.24945846 -0.21434432

layer1.0.bn2.weight f4 [8]
000000 50 47 81 3f fb d9 96 3f df bd e6 3f e9 48 eb 3f
       1.0099888 1.1785272 1.8026694 1.8381625
000010 66 99 da 3f 40 07 df 3f c9 4b fa 3f c0 69 2a 3f
       1.7078063 1.7424088 1.9554378 0.6656761

layer1.0.bn2.bias f4 [8]
000000 e6 c9 be 3f 4c 2f b3 3f 47 2b c3 3f 43 29 02 40
       1.4905365 1.3998809 1.5247582 2.0337684
000010 96 a6 a9 3f b4 de 01 3f d9 4a ba 3f 13 ce 2f 3f
       1.3253963 0.50730443 1.4554092 0.6867382

layer1.0.bn2.running_mean f4 [8]
000000 ff e9 a8 bf ff 20 eb 3f 78 b1 c5 be cd 86 1d bf
       -1.319641 1.8369445 -0.3861196 -0.61533815
000010 fc 8b 6d 3e 38 3f 4f c0 c9 b0 30 c0 fd dc 4d 40
       0.23197931 -3.2382336 -2.76079 3.216613

layer1.0.bn2.running_var f4 [8]
000000 93 e2 08 41 9e c1 db 40 2f 2e 2b 41 95 3f 6b 41
       8.555316 6.867385 10.698775 14.703023
000010 65 e3 18 41 80 51 81 41 e5 ec 1a 41 79 ea a0 40
       9.555516 16.164795 9.682836 5.028622

layer1.1.conv1.weight f4 [8, 8, 3, 3]
000000 59 f1 8a be 76 d2 52 be 24 f6 16 be 1c af fc bc
       -0.2713726 -0.20588097 -0.14742333 -0.030845217
000010 ca 07 05 3e 7c ea 8b 3e a5 65 d5 3d a1 27 d0 3e
       0.12991253 0.27327335 0.10419778 0.40655234
000020 50 aa c8 3e aa af e3 bc 85 f5 6c bd b6 f1 29 be
       0.39192438 -0.027793724 -0.057851333 -0.16596112
000030 29 f2 8a bd 12 44 de bd 9f 26 db bd 17 2f 0d 3d
       -0.0678447 -0.10852827 -0.10700726 0.034468736
000040 9f 56 31 3e be c7 17 3e 9c 5e 04 bd 8d 68 10 3e
       0.173182 0.1482229 -0.03231679 0.14102383
000050 47 79 c8 bd d8 fb b7 3d 9a 1c dc 3d 01 bf fa bd
       -0.09788757 0.08983582 0.10747643 -0.12243462
000060 09 ee 41 3d 8c ef eb bc e4 fa e5 3c 9f 04 d1 3d
       0.04734615 -0.028800748 0.028073736 0.102059595
000070 98 aa 30 3e e3 0e b9 3c c3 be 98 bc e0 f6 d7 bd
       0.17252576 0.022590106 -0.01864565 -0.105451345
000080 2b ac fb bd f5 ef db 3c f5 5c 4e bd 1c 57 79 bd
       -0.12288698 0.026847819 -0.05038162 -0.06087409
000090 55 33 57 bd 01 c0 90 bc 3a 3d b4 bd bd 9b 07 3e
       -0.05253919 -0.01766968 -0.088007405 0.13243003
0000a0 0c 17 0a 3e 50 00 8a 3d ca 4e 2e 3e dc 2b 66 3e
       0.13485354 0.06738341 0.17022243 0.22477669
0000b0 aa c1 02 3d e8 39 7a bd 45 82 6c 3d 69 20 ba 3c
       0.031922974 -0.06109038 0.057741422 0.022720532
0000c0 91 46 02 be 64 d4 57 bd cc 71 f6 3d 8d 2a 44 be
       -0.12722231 -0.052692786 0.12033424 -0.19156857
0000d0 3e 17 cb 3c 9f 9c 43 3e a0 1e 92 3e ab 18 b3 3e
       0.024791356 0.19102715 0.2853899 0.34979758
0000e0 a0 c4 91 3e 34 c4 bf bc 20 a1 f1 bd 66 e7 25 be
       0.28470325 -0.023408987 -0.1179831 -0.16201553
0000f0 46 cc 66 be 16 38 3b be 7b 6e c6 be b9 f4 05 3e
       -0.22538862 -0.18283114 -0.38756165 0.13081636
000100 1e 8f 42 bc ed 0e 80 bc 62 b8 f9 3c f7 c6 9f bd
       -0.011874942 -0.015632117 0.030483428 -0.078016214
000110 9c a0 13 bd 58 e2 24 3c 93 4b 1c bc 3c 19 0f 3d
       -0.03604184 0.01006373 -0.009539503 0.034936175
000120 3f 94 7d be 84 62 53 bd 22 9f e9 3d 97 dd 3b be
       -0.24763583 -0.051607624 0.11407305 -0.18346249
000130 64 46 32 be 04 13 93 3e 41 d5 0b be 22 1b 4d be
       -0.17409664 0.28725445 -0.13655569 -0.20029882
000140 de dc c2 3e 45 56 88 be 9e a7 83 3e 2d 62 43 be
       0.38059133 -0.26628318 0.2571382 -0.1908042
000150 40 70 3a be 05 a4 b6 3e b9 5c 81 be e7 7e 68 bd
       -0.18206882 0.35672012 -0.25266054 -0.05676165
000160 ba 2c 91 3e 14 ff 69 be e6 0a 56 bd 43 bf 65 3e
       0.28354436 -0.22851211 -0.052256487 0.22436242
000170 3e ab 6f bd 12 16 f4 bd 0c 96 14 3f 32 ac 56 be
       -0.05851292 -0.11918272 0.58041453 -0.20964125
000180 b1 a0 bb be 7b 3b 9c 3e 92 f1 5e be c4 29 84 3e
       -0.36646035 0.3051413 -0.2177184 0.25813115
000190 b5 55 c4 be 55 91 4c 3d 59 5f 07 3f cd 1e a5 be
       -0.3834664 0.049943287 0.52879864 -0.32250062
0001a0 4b 3f b9 3d 29 42 bc 3d e8 67 88 be 32 1a 7b be
       0.09045275 0.091923065 -0.26641774 -0.24521711
0001b0 42 41 0b be b6 c0 dd 3d fe 28 50 3d 84 00 3c 3c
       -0.13599113 0.10827772 0.050820343 0.011474732
0001c0 d5 a5 88 3e cb 2c 87 ba 8c ae 94 bc 42 94 3d 3e
       0.2668902 -0.0010313032 -0.018149637 0.18513587
0001d0 9b 0d fa bd be 65 6d bd 44 db cc 3e cb d8 86 be
       -0.12209626 -0.057958357 0.40011036 -0.26337275
0001e0 c2 2f ae be ad 9c 6a 3f ee 80 d7 bd 29 b9 1a be
       -0.3402081 0.9164532 -0.10522638 -0.15109695
0001f0 bd ac 53 3f 6e cd 28 3e a2 ff 10 be b9 97 84 3e
       0.8268545 0.16484615 -0.14160016 0.25897005
000200 ed b6 ad be 3f a1 93 3e 0d 8e ac be 4f 67 18 3e
       -0.33928624 0.28833959 -0.33702126 0.14883159
000210 c3 24 d0 3e 16 6e 8f be 94 df cf 3d d8 51 e3 bd
       0.40653047 -0.28013676 0.10150066 -0.11099595
000220 6a 06 1b 3c 47 69 45 3e bd 70 66 be b4 30 06 be
       0.009461978 0.19278441 -0.22503944 -0.13104516
000230 76 9c d1 3d 8c ce a8 bc c1 4b a1 bb cd c6 ae 3d
       0.10234921 -0.020606302 -0.0049223606 0.08534012
000240 07 88 03 be f3 13 5d 3d 45 7b 8f bd 99 c8 8d 3d
       -0.12844859 0.053974103 -0.07005934 0.069230266
000250 ee ec fb bd 5c b0 4f bd 7c 11 4a bd 69 11 04 bd
       -0.1230105 -0.0507053 -0.04933308 -0.032243166
000260 3d 37 b0 3d 45 42 86 be bb c9 72 be 65 6e df 3d
       0.08604286 -0.26222435 -0.23709767 0.10909728
000270 fe 62 48 3e 23 d5 d8 3e e1 0b 95 3d 54 91 5f 3e
       0.19569013 0.4235011 0.07277656 0.21832782
000280 46 2e b3 bc 72 72 4d bd 28 64 05 3a f5 1b 02 bf
       -0.02187265 -0.05015797 0.0005088472 -0.5082391
000290 46 39 9c bb 83 af d9 be 8f 43 ee 3e 0f 26 a3 3e
       -0.0047675697 -0.42516717 0.46535918 0.31864974
0002a0 c0 4f f6 3e 86 a8 e7 3d a2 2a 96 be 4b 2a 9d bd
       0.4810772 0.1131144 -0.293294 -0.07674082
0002b0 55 bc ae 3d aa f7 80 3e 20 f8 70 3e 21 d3 ef 3c
       0.08532015 0.25188953 0.23532152 0.029275479
0002c0 c3 e2 bf be a8 e8 22 be 14 88 32 be 9d d2 af 3d
       -0.37477693 -0.15909064 -0.17434722 0.08585093
0002d0 22 27 20 3d 2a 17 bd 3d c8 3e f5 3c 12 94 5c bd
       0.03909982 0.09232934 0.029937163 -0.05385215
0002e0 a1 dd e3 bd f8 ad 48 bd 9b cd f2 bd 7f 9e 9e bd
       -0.11126257 -0.048994035 -0.118556224 -0.077450745
0002f0 a3 33 75 3e b0 11 d9 bd 7d 4c b7 bb 56 35 7f 3b
       0.23945479 -0.10599077 -0.005593835 0.0038941703
000300 97 69 86 bd 6b 99 1b 3e 7e ae 92 bc 29 25 b4 bc
       -0.065631084 0.15195243 -0.01790547 -0.021990376
000310 06 7c 11 be 27 f1 36 3d 62 7b ab 3c 58 9a 08 3f
       -0.14207467 0.044663575 0.020932857 0.5336051
000320 33 8f 06 bc 34 d9 d2 3e ef d4 ab be 8a 0c aa be
       -0.008212852 0.41181338 -0.33560893 -0.33212692
000330 70 94 71 be ba 07 20 be 8e ad 65 3e f7 0f aa bd
       -0.2359178 -0.15627947 0.22429487 -0.08303826
000340 a8 7f 5b be bf 75 84 be 9a 9a 35 bd e0 b5 84 bd
       -0.21435416 -0.25871083 -0.044336893 -0.064800024
000350 28 2d 18 3e d2 25 35 bd 76 1c 85 3e 27 ab d7 3e
       0.14860976 -0.04422552 0.25998276 0.42122766
000360 33 71 9e bc 44 14 40 3c e5 ce 66 3e 2b c0 59 bd
       -0.019341087 0.011723582 0.22539862 -0.05316178
000370 9e 9f bf bc eb 1d c9 3d b5 15 3d be 8c f2 19 be
       -0.023391541 0.098201595 -0.18465312 -0.1503393
000380 07 30 a6 bb f7 2d 26 3e f0 9c 0d 3e 51 68 13 be
       -0.0050716433 0.16228472 0.13829398 -0.14395262
000390 fa 52 73 be 6e 2f 11 bf 4a 3f 1e be f8 d1 e5 bb
       -0.23762122 -0.56712997 -0.1545383 -0.0070135556
0003a0 34 85 f5 bd 8d 1e ba bd d8 1b 06 3c 98 7c 6b bd
       -0.11988297 -0.09087858 0.008185349 -0.05749187
0003b0 e1 fb c9 bd 65 b8 d1 bc 43 77 7c be bd fe d4 be
       -0.09862495 -0.025600621 -0.2465487 -0.416006
0003c0 72 53 f8 3d 08 38 fc 3d 4a 4c 78 bd a1 00 16 bd
       0.12125291 0.123153746 -0.06061963 -0.036621694
0003d0 2a d0 d8 bb f5 52 16 bd ea f2 b4 be 10 41 9a be
       -0.006616612 -0.036700208 -0.3534158 -0.30127764
0003e0 18 02 84 be b1 59 13 be 6b a7 d2 3d cf 7f a3 3d
       -0.25782847 -0.14389683 0.10285839 0.07983362
0003f0 d5 cf 9c bd 3a d7 0d bd 5b 6a 37 3d 48 8e 8d bc
       -0.07656828 -0.034629084 0.044779163 -0.017279759

layer1.1.bn1.weight f4 [8]
000000 63 f9 a5 3f ad 84 36 40 d6 5a 18 40 0c 09 04 40
       1.2966732 2.851848 2.3805442 2.0630522
000010 19 9b e2 3f ca 66 e2 3f 6e 23 e7 3f 02 98 15 40
       1.7703582 1.7687619 1.8057687 2.3374028

layer1.1.bn1.bias f4 [8]
000000 b2 fb 2f 3f bc b6 a6 3e 8a c3 eb bc b4 ba af 3f
       0.6874343 0.3256129 -0.028779764 1.3728852
000010 7f a1 8b bf 1b 9f 98 bf ae 7c 83 bd a9 f2 81 bf
       -1.090866 -1.1923555 -0.06420265 -1.0152179

layer1.1.bn1.running_mean f4 [8]
000000 76 27 95 40 95 60 08 40 39 7c 90 3f 7d fe 81 c1
       4.661067 2.130895 1.128791 -16.249262
000010 7f c4 57 41 d8 e8 5e 41 ec 57 31 c0 62 3a b3 41
       13.485473 13.931847 -2.7709913 22.403507

layer1.1.bn1.running_var f4 [8]
000000 89 e7 60 42 cd ca 9b 43 f3 f7 06 43 57 2b b8 42
       56.22611 311.58438 134.96855 92.08465
000010 17 76 9a 42 c9 92 a3 42 72 6e 9c 42 99 73 f2 42
       77.230644 81.78669 78.21571 121.22578

layer1.1.conv2.weight f4 [8, 8, 3, 3]
000000 e4 ef fb 3c 83 f9 12 3e 5a 8f e2 3d e8 02 9c 3d
       0.030754037 0.14352994 0.110624984 0.07617742
000010 c0 43 41 3e d9 01 2d 3e c3 eb 4b 3d 29 9d 21 3e
       0.18873501 0.16895236 0.049785387 0.15782608
000020 d3 5f 0b 3e 8c ad 08 bb b5 b2 2a bd f3 99 38 bd
       0.13610773 -0.0020855395 -0.041674335 -0.045068692
000030 8d d2 be 3d 4a 70 9e 39 34 50 b5 bd 2f 27 88 3d
       0.09317503 0.0003021977 -0.08853188 0.06648099
000040 13 89 94 3d 60 5a 16 bd a8 60 d0 3d 6c 9e b5 3d
       0.07252707 -0.036707282 0.10174686 0.08868107
000050 6a 72 cf ba 2c 7a f1 ba 29 c9 65 bb bf 0c 87 bc
       -0.0015826945 -0.0018423251 -0.0035062528 -0.01648557
000060 8e 92 dd bb 5f e5 8f bd 68 e3 80 bd 54 60 d1 3c
       -0.0067618554 -0.07026171 -0.06293374 0.025558628
000070 94 67 0a bd 05 ae 80 be 05 61 4b 3e c1 a7 80 3e
       -0.033790186 -0.25132766 0.19861229 0.25127986
000080 04 2d a0 bd 42 9e d3 3d 1c 0f e0 3d 2f 03 82 bd
       -0.07821086 0.1033292 0.10940382 -0.063482635
000090 2b ec 13 3e f2 3e c5 3d 73 5c 05 3d 7f ef 9e 3e
       0.1444556 0.096311465 0.03255887 0.31042096
0000a0 7a 42 71 3e 5d d0 a5 3e d2 e2 2f 3e 2c ae 85 3e
       0.23560515 0.3238553 0.17176369 0.26109445
0000b0 6b a3 ba 3e c8 c4 96 be 1d 1c 84 be 90 3f 98 be
       0.36452803 -0.29447007 -0.258027 -0.29735994
0000c0 92 64 9f bc 4a 43 21 3d b8 ec a0 bb d4 42 96 be
       -0.019457135 0.039370812 -0.0049110316 -0.2934786
0000d0 52 91 6e be b9 ef 90 be 65 f4 57 be 60 62 8c bd
       -0.23297623 -0.28307894 -0.21089323 -0.06854701
0000e0 c2 e9 17 bd 52 42 1b be ab 3a 5a 3d 62 57 51 3d
       -0.037088163 -0.15162018 0.053278606 0.051108725
0000f0 00 69 bf bc 2d c7 44 3e 42 e7 14 3e bb 2e b2 b9
       -0.023365498 0.19216605 0.14541343 -0.00033985623
000100 b6 a4 86 bd 61 d7 88 be 8d 28 97 3e 84 0b 5b 3e
       -0.06574385 -0.2672682 0.29523125 0.21391112
000110 16 ec 39 be a1 c1 94 bb 8c 0a bf 3d f4 6e d7 be
       -0.18156466 -0.004539684 0.093281835 -0.42076838
000120 38 f3 06 38 75 14 e6 bc 3c da e0 3c c1 52 e2 bb
       3.2174605e-05 -0.028085927 0.027447812 -0.0069068377
000130 54 36 9b 3d e6 7f 1d 3e af 13 12 3d 7b 3f a3 3d
       0.07578722 0.1538082 0.035663303 0.07971092
000140 83 a8 4e 3e 26 95 19 be 96 ad 57 be 35 e5 8a bd
       0.2018147 -0.14998302 -0.21062312 -0.06781999
000150 d5 81 36 be c9 1b 8b be b3 1e ed bd d8 8c 31 3d
       -0.17822964 -0.27169636 -0.11578121 0.04334721
000160 f5 c6 34 be 07 ff 3f be 96 55 90 3e c0 ab a9 3e
       -0.17654021 -0.18749629 0.28190297 0.33138847
000170 a7 66 85 3e 25 80 8a 3e 2b 94 e1 3e c5 3b b5 3e
       0.2605488 0.27050892 0.44058356 0.35397163
000180 49 8f 86 3d b7 c3 3c 3e c9 ec 10 3e 96 57 0a be
       0.06570298 0.18434034 0.14152826 -0.13509974
000190 d1 af e7 bd 4d 76 1e bd 60 38 1a be 13 5a 3e be
       -0.11312831 -0.03868704 -0.15060568 -0.18589048
0001a0 14 70 8b bd 62 6c f8 3c 33 09 10 3e f8 ac 25 3e
       -0.068084866 0.030325118 0.14066009 0.16179264
0001b0 30 a3 15 bd 91 96 c0 bd f0 7c 6c be 28 6d 95 be
       -0.03653258 -0.09403718 -0.23094535 -0.29184842
0001c0 69 97 86 be a5 59 d4 be 20 e7 09 be 14 15 1a bd
       -0.26287392 -0.41474643 -0.13467073 -0.037617758
0001d0 89 77 23 be f7 65 2a be b7 68 0d be 63 da 53 be
       -0.15963568 -0.16640459 -0.13809477 -0.20688777
0001e0 b5 a9 3e be b7 fd 15 be 92 62 0d be 95 eb 9f 3d
       -0.18619426 -0.14647566 -0.13807133 0.078086056
0001f0 1e 77 34 3e 26 42 57 3e 91 ea 7f 3d 85 03 18 3e
       0.17623565 0.21021327 0.06247956 0.14845093
000200 3f 9b 5e 3e 37 ce bb 3d b2 90 8f 3e 60 cb bc 3e
       0.21738909 0.09170192 0.2804008 0.36873913
000210 95 30 06 3e 29 55 53 3e 1e 08 46 3e 0c f8 26 3e
       0.1310447 0.20637955 0.19339034 0.1630556
000220 db 2b 08 3c b0 3d 28 3d 51 30 06 be 0d a0 ae be
       0.008311237 0.041074455 -0.13104369 -0.34106484
000230 6b 19 7a be 2b dd 81 3d a5 e8 7c bd 1a b9 61 bc
       -0.24423759 0.063410126 -0.061745305 -0.013777042
000240 83 93 00 3e b2 5f ca 3d 61 ed 31 3e 24 d9 33 3e
       0.12556271 0.09881534 0.17375709 0.17563301
000250 ce 9a b3 3d 30 bc 25 3e e3 21 c8 3d 9f 5d 48 3e
       0.08769761 0.16185069 0.097720884 0.19566964
000260 ff 9f ea 3d 42 03 8c bd 15 2e 5f bd 1f 09 43 bc
       0.11456298 -0.06836559 -0.054487307 -0.01190403
000270 cb 3b 71 bd 44 47 1e be da 94 c0 bd be c4 bc 3d
       -0.058894914 -0.15456873 -0.09403391 0.09217213
000280 48 7f a7 bd 27 dc e3 3d 08 95 19 bd 5e db d5 bd
       -0.08178574 0.11125975 -0.037495643 -0.104422316
000290 57 d0 88 3b 9a be 53 be f4 54 a5 bd 08 64 0a 3d
       0.0041752267 -0.20678177 -0.08072844 0.033786803
0002a0 69 bc e3 bd c1 ed 8a bd e4 c1 aa bd b4 03 77 bd
       -0.11119921 -0.06783629 -0.08337763 -0.060306266
0002b0 29 61 9a 3d b8 23 8c 3d 4f 41 8b be 3f 73 22 be
       0.07538063 0.0684275 -0.27198264 -0.15864275
0002c0 4d 1c 25 3d 56 bf 96 3c 6a 27 cf 3c 9a f5 07 3e
       0.040310193 0.018401783 0.025287349 0.13277283
0002d0 e5 14 73 bc e5 42 37 3e d5 c9 77 3e 98 f8 41 3c
       -0.014836525 0.17896612 0.24198087 0.0118390545
0002e0 33 61 54 3e 73 b1 39 3e 6f be 9a 3e c7 e3 df 3e
       0.20740204 0.18134098 0.30223414 0.43728468
0002f0 a5 1e b9 3e a6 e9 0c 3e 08 ce 0f 3e 83 a7 52 3e
       0.36156192 0.13761005 0.14043438 0.20571713
000300 be ae 75 be 78 f7 b1 bd ff fa 1a be 0a 51 68 3e
       -0.2399244 -0.08689779 -0.1513481 0.22687164
000310 d8 a3 99 3e c6 df 54 3e 36 f0 9a 3d 04 f7 a5 3d
       0.30007815 0.20788488 0.07565348 0.08103755
000320 8e d7 06 3e 68 68 77 3e 9f 32 ef 3d 51 4c 0d 3e
       0.13168165 0.24160922 0.11679577 0.13798644
000330 cf ae de 3d be 69 21 3d 7c 59 e5 3d e6 1d be 3d
       0.10873186 0.039407484 0.111987084 0.092830464
000340 66 83 21 3d b6 39 25 3d 1c 46 a4 be a0 04 df be
       0.039431952 0.04033824 -0.3208474 -0.43558216
000350 78 3a 8c be 12 c0 40 bd 84 73 b6 3c 8a e6 7c 3e
       -0.27388358 -0.047058173 0.022271879 0.24697319
000360 b7 22 51 bd 6d 5d 98 3d 98 c8 9f 3d f0 5a e7 bd
       -0.051058497 0.074396946 0.07801932 -0.11296642
000370 13 71 7f 3d 93 82 2c 3d 01 3d 4a bd b5 3b 0b bd
       0.062363695 0.042116713 -0.049374584 -0.033992488
000380 03 b8 c7 3c 1d 1d f2 bb 4f 1e 1d 3e 4b cd b1 bd
       0.024379736 -0.0073887245 0.15343593 -0.08681735
000390 ee fb 9d bd 0d 05 9f 3d cd f2 dd 3d cc cc f8 3c
       -0.077140674 0.07764635 0.10837326 0.030371092
0003a0 aa 85 ac 3c 0d b2 f6 3b 53 a1 fe 3a 6b 03 36 bd
       0.02105983 0.0075285495 0.001942674 -0.044436853
0003b0 d0 24 77 bc 41 56 63 bd 9c 85 cf bd 11 a8 d1 bc
       -0.01508446 -0.05550218 -0.10132906 -0.025592836
0003c0 52 3f e1 bd bf ee 27 3d bb 92 3b 3d 65 2a 99 3d
       -0.109984055 0.04099917 0.04579423 0.07478789
0003d0 b3 a7 d0 3d 7d 34 91 3d d9 b1 05 be 91 75 5e be
       0.10188236 0.070900895 -0.13056125 -0.21724536
0003e0 af 18 a8 be de ed b2 3d b8 17 ae 3d 25 85 13 be
       -0.32831332 0.08736776 0.08500618 -0.1440626
0003f0 87 c6 42 3d d8 a7 9f bd 0e d2 cb 3c 46 4a 10 3d
       0.04755261 -0.077956855 0.024880435 0.035227083

layer1.1.bn2.weight f4 [8]
000000 2b 68 7a 3f 75 a1 08 40 49 b5 e0 3f 5d 5d a0 3f
       0.978152 2.1348546 1.7555324 1.2528492
000010 dc 7c b8 3f 10 61 e3 3f c5 7f dc 3f 62 58 49 3f
       1.4413104 1.7763996 1.7226492 0.78650486

layer1.1.bn2.bias f4 [8]
000000 44 b2 21 3f f8 e2 97 3f 55 7f 49 3f ca 1a 61 3f
       0.63162637 1.186614 0.7870992 0.879315
000010 b0 e4 5c 3f a8 35 c8 3f 99 5c 16 3f a3 53 4e 3e
       0.8628645 1.5641375 0.5873504 0.20149092

layer1.1.bn2.running_mean f4 [8]
000000 dd a8 98 3f 1e d4 bd 3e f7 dd 1f 3f 91 a5 8e be
       1.1926533 0.37075895 0.62448066 -0.27860692
000010 2f 1c 9f bd ff 40 36 40 5c d7 4b 3f 55 9b 01 3f
       -0.077690475 2.847717 0.7962549 0.5062764

layer1.1.bn2.running_var f4 [8]
000000 a8 4a 86 40 89 d9 0a 41 74 2e c3 40 e8 50 81 40
       4.1966133 8.678109 6.0994205 4.0411263
000010 09 40 c3 40 b5 cc 70 41 0e ff 9f 40 3a bb 60 40
       6.101567 15.049977 4.9998846 3.5114274

layer1.2.conv1.weight f4 [8, 8, 3, 3]
000000 93 9b 10 be f3 96 59 bd 9c 20 8c 3d 3e 7b 08 3d
       -0.14121847 -0.053122472 0.06842157 0.033320658
000010 67 06 99 3d 0e 2b ab 3d 76 0e c2 3c a7 33 a8 3d
       0.07471924 0.083578214 0.023688536 0.08212977
000020 f9 ad 11 3d 45 52 e5 bd 0c 73 35 be 63 1d 45 be
       0.035566304 -0.11197332 -0.17719668 -0.19249491
000030 c0 5a 98 be 2b 79 7c be c9 3c 22 be a0 db d5 bd
       -0.29756737 -0.24655597 -0.158435 -0.10442281
000040 da d2 c6 bd b8 6c d0 bd 67 79 d1 3d 70 6e 9c 3c
       -0.097081855 -0.101769865 0.10228234 0.01909563
000050 36 1f ea bd 22 4a 59 bc f8 12 7a be 8e b0 44 be
       -0.11431734 -0.013262304 -0.24421299 -0.19207975
000060 87 07 d5 3c df 3e 9d bc 2a 8d 47 bd 3c 2e a6 ba
       0.026004566 -0.019195018 -0.04871861 -0.0012678574
000070 00 35 0c 3b d9 cf 02 3d 29 94 f9 bd 20 1c 8a bd
       0.0021393895 0.0319365 -0.121864624 -0.06743646
000080 95 28 2f bd ba a8 a2 3d 10 3d 2d 3d bc 80 dd bc
       -0.04276331 0.07942338 0.042294562 -0.027038924
000090 e0 4b de 3d 7a 10 5d 3e 4d d9 13 3e 1c 97 22 3d
       0.10854316 0.21588317 0.14438362 0.03969489
0000a0 41 0c cb 3d 48 dd cc 3d 00 fb cf bc cf ee eb 3d
       0.099144466 0.100031435 -0.02538824 0.115201585
0000b0 ab 87 b3 3d 1d db 81 bd a5 1a b9 bd 28 54 2b 3d
       0.08766111 -0.06340621 -0.09038285 0.041828305
0000c0 8a de 98 bd 3b 69 71 be 36 eb 0a be cf c1 a9 3d
       -0.07464321 -0.23575298 -0.13566288 0.08288919
0000d0 c7 3e a0 3b 2e e7 48 bd 57 a6 dc 3d 08 4a 0e 3d
       0.004890296 -0.049048595 0.10773914 0.03473857
0000e0 7f 7d f7 3d d9 f6 bc 3d 5e 3b 57 3e 06 46 24 bd
       0.12084483 0.0922677 0.2101874 -0.040105842
0000f0 49 9a 2e bc f5 c0 f5 3d b0 44 9d 3c ba 6b a0 3b
       -0.010656902 0.11999694 0.019197792 0.0048956545
000100 bd ae 55 bd dc ca 6b 3d df 5f d9 bd b0 b7 af bd
       -0.052168597 0.05756651 -0.10613989 -0.085799575
000110 6e 2b 9c 3d 48 87 c0 bd 29 90 95 bd f4 ef a9 3d
       0.07625471 -0.09400803 -0.07302887 0.082977206
000120 8b 6c f5 bd b2 2f 80 bc 71 e3 94 bd 7c a1 cc bd
       -0.119835936 -0.015647743 -0.072699435 -0.09991738
000130 d7 da 32 be 97 64 83 be f1 1e b4 3d e5 7f 3c 3e
       -0.17466293 -0.2566268 0.08794964 0.18408163
000140 b1 71 4c ba f8 2b 84 be 2d 38 64 be 07 bf 15 bd
       -0.0007798924 -0.25814795 -0.22287054 -0.03655913
000150 d1 39 3b 3e 0d 0a ff 3d 90 4f e9 3d c6 46 3d 3e
       0.18283774 0.12453089 0.113921285 0.18484029
000160 ab 90 c3 3d 17 5e 46 3e 63 b9 1d bb 7a b7 46 3c
       0.095490776 0.1937183 -0.0024066798 0.012128705
000170 87 22 e8 bd 5d dc 19 be 46 a0 ae 3e e5 41 44 3e
       -0.113347106 -0.15025468 0.34106654 0.19165762
000180 60 df b2 3e c8 3e 01 bd 5c 09 38 be 1f db 9d 3d
       0.34936047 -0.031554013 -0.1797232 0.0770781
000190 c6 2b 87 3d 8e 5b be 3d 8e 45 5a 3e 03 b0 a9 3e
       0.06600146 0.092948064 0.21315596 0.331421
0001a0 85 4e 36 be 23 91 0c bf e1 0c 43 be dd a3 47 3d
       -0.1780339 -0.5490896 -0.19047882 0.048740257
0001b0 62 fc 06 3e b1 b0 f6 3c 39 78 28 3e e1 0a ae be
       0.13182214 0.03011355 0.16452111 -0.33992675
0001c0 99 d6 8b be 43 76 87 be be 51 97 be ae f6 a2 bd
       -0.27312163 -0.26457414 -0.29554552 -0.07957207
0001d0 dc 22 7f bd b4 4a 0f bd 55 3e 69 3e 8e 38 99 3d
       -0.062289104 -0.03498335 0.22777684 0.0748149
0001e0 06 4c c3 ba 03 32 3c 3e ec 3b 4a 3d a9 c3 2b be
       -0.0014899976 0.18378453 0.049373552 -0.16773857
0001f0 c8 49 95 bd c5 e4 fc bd 1e 86 aa bc bf 2a 0b 3e
       -0.07289463 -0.12348322 -0.020815905 0.13590525
000200 a4 6c ca 3d 23 05 11 be 02 c8 e5 be 99 ec e5 be
       0.09884003 -0.14162116 -0.44879156 -0.44907072
000210 d1 74 32 be b6 b9 d7 3d c9 85 09 bd ff 47 a1 3c
       -0.17427374 0.105334684 -0.033574853 0.01968765
000220 c0 65 57 3c d7 97 90 bc 1f fe c4 3d 8a ee 95 3d
       0.013146818 -0.017650528 0.09618782 0.07320888
000230 96 b1 4c 3d 45 57 c9 bd 63 fd 9b bd 08 7a ea 39
       0.049974047 -0.098310985 -0.07616689 0.00044722878
000240 e0 e6 83 be 00 7b 58 be 56 ac f9 bd 5d 62 3f bd
       -0.2576208 -0.21140671 -0.121910736 -0.046724666
000250 cc a8 b1 3d f7 e4 16 3e 0f 77 20 3e 8e ef 42 3e
       0.086747736 0.1473578 0.15670417 0.19036695
000260 c0 44 1d 3e 66 c4 aa 3d 55 1d e8 3d 3b e9 d2 3d
       0.15358257 0.08338241 0.1133372 0.102983914
000270 34 a3 83 bd c8 6e 82 3b cd 6a cd bd 0d 9e b3 bd
       -0.06427613 0.0039804913 -0.10030136 -0.0877038
000280 31 9e 5d bd 6e 89 b8 3b 50 2e 39 3e 08 1f 95 3e
       -0.05410594 0.0056316173 0.18084073 0.29125237
000290 6e 05 a4 3d 96 d9 b9 3e f3 48 3e be de a1 78 be
       0.08008848 0.36298817 -0.18582515 -0.24280497
0002a0 00 23 93 be 95 2f 26 be 9a 25 33 3d 9b 47 84 3d
       -0.2873764 -0.16229089 0.04373703 0.0645897
0002b0 6c 64 c2 bd 4a 0f 9f be 1f dc 89 be db fc 13 be
       -0.0949181 -0.31066352 -0.26925752 -0.14451925
0002c0 db b1 f7 3d ad a3 70 3d 88 93 0d 3e 42 dd 17 3e
       0.1209447 0.058749843 0.1382581 0.14830497
0002d0 0b 0b 5e be e7 94 26 be 66 d2 50 be b0 f1 2d bd
       -0.216839 -0.16267739 -0.2039276 -0.04246682
0002e0 a7 ff 06 3e d4 31 67 3e 7a 63 5e 3d f3 79 f7 3d
       0.13183461 0.22577602 0.054294087 0.12083807
0002f0 d3 df 32 3d 68 3c 92 3a 8b 99 72 3c dd e6 6d 3a
       0.043670487 0.0011156918 0.014807115 0.0009075234
000300 dc 61 5f bd 7d 56 66 bd 97 4b 14 bd 53 b0 aa bd
       -0.054536685 -0.056234825 -0.0362049 -0.083344124
000310 cc 2d a8 3d 20 f6 86 bd f1 06 fa bd 51 cd 61 be
       0.0821186 -0.06589913 -0.12208355 -0.22050978
000320 74 6c 01 3d 57 96 df bd 87 53 8d 3e 48 15 44 3e
       0.03159757 -0.10917347 0.2760279 0.19148743
000330 a0 63 4d 3e 49 3f 40 3e 52 5f 47 be 99 d8 23 3d
       0.20057535 0.18774141 -0.19469956 0.040001485
000340 91 f4 6b bd c3 0a bc bd 6f 98 47 bd 7d ce 92 bc
       -0.057606284 -0.0918174 -0.048729356 -0.017920727
000350 d4 82 03 3d b6 a5 bf 3d b8 fb a0 3d e7 a9 fb 3d
       0.03210719 0.09357779 0.078605115 0.12288266
000360 8e b1 84 be 7e 52 c4 3b dc 9d 6d bd 85 34 47 be
       -0.25916713 0.005991279 -0.058011875 -0.19453628
000370 0d ab 7f 3e 5e 9e 19 3e 5a cf 61 be 81 76 5f 3e
       0.24967594 0.15001819 -0.22051755 0.2182255
000380 af f3 21 3e ba eb e0 bd d9 41 8d bd 13 ab 84 bd
       0.15815614 -0.10982461 -0.06897325 -0.06477942
000390 44 7c c9 bd b6 5c c1 bc d1 33 63 3c d5 73 ce bd
       -0.09838155 -0.023603778 0.013867334 -0.10080687
0003a0 75 c8 c4 3d 91 25 6e 3e 45 71 98 3d 1b bd c5 3d
       0.09608547 0.23256518 0.074434794 0.0965521
0003b0 8c 30 81 be 6f b7 8f 3e 1c fc cc 3d 87 c6 39 be
       -0.2523235 0.28069636 0.100090235 -0.18142138
0003c0 12 87 f2 3d 0f d1 04 3b 9a 91 88 be bb b9 02 3e
       0.11842169 0.002026621 -0.26673585 0.12766163
0003d0 9c 47 de bd 69 2c b9 3a 88 e9 68 3d 57 6e dc bd
       -0.10853502 0.0014127615 0.056863338 -0.10763233
0003e0 fa 61 1a be aa c7 99 3d 46 05 4c be 45 65 5d be
       -0.15076438 0.07508786 -0.19923887 -0.21620663
0003f0 bc cf db 3d 57 ba 13 3e 99 d7 2e 3e 26 9c 83 3a
       0.107329816 0.14426552 0.17074431 0.0010041043

layer1.2.bn1.weight f4 [8]
000000 61 40 9a 3f 79 65 10 40 57 d6 ef 3f 8c 25 e4 3f
       1.2050897 2.2561934 1.8737286 1.7823958
000010 02 53 9e 3f 07 84 a4 3f 96 73 29 40 d0 ff 20 40
       1.2369082 1.2852792 2.6476798 2.5156136

layer1.2.bn1.bias f4 [8]
000000 47 ab 07 3f a0 58 dd 3d 6e 4b 98 3a 2a fb ad 3e
       0.52995723 0.108079195 0.001161916 0.33980685
000010 6d 92 0b 3f dc 79 13 3f 04 bf dd be e6 dc 42 3e
       0.54520303 0.5760782 -0.43309796 0.19029579

layer1.2.bn1.running_mean f4 [8]
000000 62 cd e8 bf be 7b 24 c1 7d f6 d1 3e 6b 22 2f c0
       -1.8187678 -10.2802105 0.41008368 -2.7364757
000010 5b b9 ed c0 55 b3 bc c0 24 b1 08 c1 03 e8 8a c0
       -7.4288764 -5.896891 -8.543247 -4.3408217

layer1.2.bn1.running_var f4 [8]
000000 cd 81 82 42 62 73 60 43 6f fc cc 42 f1 bc a6 42
       65.25352 224.45071 102.493034 83.369026
000010 ce ec 4a 42 42 f6 8c 42 a7 26 38 43 3d 7d 48 43
       50.731255 70.48097 184.15099 200.48921
